第一题/fc_mnist.pth (torch, 548754 bytes, 6 tensors)

weight f4 [128, 784]
00000000: 70f9 01bb f579 d8bc 5e12 9b3c 56e6 f93c
00000010: e0d3 023b 4ad6 c93c 7050 85bb 8825 12bd
00000020: bc2d 00bd c5d2 f7bc aa96 4fbc 80b7 93bb
00000030: 8028 483c 8882 873c 46fa a43c b2b9 55bc
00000040: 326c de3c 294b 073d 0c59 94bc bc9b 07bd
00000050: 0054 773a bee7 8e3c 80ee 69bb 6ccd 83bc
00000060: 1a08 afbc 155e 95bc dea8 cb3c ae44 d3bc
00000070: 78c4 cabb 48b0 b4bc 38b9 313c e34e 01bd
00000080: e389 84bc ed7a ba3d af54 e63d 5454 663d
00000090: ead8 dc3d a8d9 bc3d 56dc 483c 53a7 443d
000000a0: ab0a 9a3d cec0 09bc ff3b 3bbd 5d94 543d
000000b0: 5105 b9bc 7c4c d4bd 1907 eabd e9d4 0cbd
000000c0: f823 e23c 74fe 333c c4a3 3e3c 5468 b6bb
000000d0: 5e1c f53c 5047 1a3c de00 f9bc c197 f3bc
000000e0: 800f 03bd 6c82 b93c bc87 d93c 546a 103c
000000f0: 84c3 5d3c bbe3 d83d 4339 9c3d 0e97 3a3d
00000100: 545d ad3a 9345 bb3d 195b c63d cc2a ae3d
00000110: c74e 883d fdee bc3d 373e 3bbb c3a4 38bd
00000120: 3c32 3b3d 4c61 49bd 3f05 5f3c b21e cd3b
00000130: 5264 b3bd a75d a9bd bc65 01be b2ea 08bd
00000140: db20 b5bc 6e87 a2bc 4ebb cebc bcd3 7ebc
00000150: e0fa d93c b0b4 c9bb 1846 03bd 2493 e4bb
00000160: 24c5 cf3c 6039 a93c 7248 21bd a909 2cbe
00000170: 1039 cebd cbd8 8ebc b81b ef3c 2bc9 243d
00000180: 794b 203d b22a 403d 60c6 ff3c 78bd b8bc
00000190: 779d a2bd 2db1 823d 9237 873d 0857 243d
000001a0: 2e25 983a 64bb e93b e29d c5bd c0e7 5fbd
000001b0: fcfc 08be e954 12be b59c 813c 9c0f 003c
000001c0: c056 3aba c868 853c 8c37 8ebc 27c8 9bbc
000001d0: b458 3b3d 8cbb d3bd 1306 2cbd 208e 94bc
000001e0: 67c1 f43c 82ee 913c 6afb 7b3d 389a 56bb
000001f0: c5a4 e03d 191a d13d a4fa f93d 2bcd 593d
00000200: 6847 7e3d 905a 443d 0811 45bd f7ae 80bc
00000210: 318b 1abd ccf4 9e3c 688c 9cbc df6b 38bd
00000220: f621 10be 9751 98bb e77d 113e ea1f 10bc
00000230: 1a6b c93c 592d 913b 02ed 20bd 002c 39bd
00000240: 088d d4bc 5604 9abd a922 13bc 6c9f 17bc
00000250: b22b 19bc 27b8 d9bc 4d92 01bc 1e81 3c3b
00000260: fa11 443d 0127 713d 9e9b 473d 4700 2fbb
00000270: 76d0 adbd e57c 31bd d21a 023c b6c1 493d
00000280: a25e cc3d a51c 023d bb9d 60bc b49e f83c
00000290: 35cf 64bd 56c8 543d 3e53 473e 0093 493c
000002a0: b08d e63b c535 043d 8522 bebd 9e08 d4bd
000002b0: 12aa cc39 f76f 033d 4629 8c3c 9d41 42bc
000002c0: c42c 4abd 9d00 3fbd 959d cbbc 75b4 c73c
000002d0: 6f26 dc3b bf4e 463c c00f 2c3d f3da 673d
000002e0: 4f2e f63c 8079 a9ba 685e 98bc 113f 453d
000002f0: 5a7f a33d 38b0 353d 17ea c13c 4393 13bd
00000300: c1e3 b83b 4097 2e3c 7f71 b43d 7027 893d
00000310: 3a93 d1bc fc01 d6bc b00e ecbd 44c7 fbbc
00000320: c660 1c3d 6234 fb3d a14a 083d e6fd 45bd
00000330: e39b 353d 830d 123b 8135 063d 0e89 a83c
00000340: ea86 4d3b 8633 403d 2669 263d 15d6 413d
00000350: c447 8bbc 2586 7fbc 46a1 0f3d 268d c03d
00000360: cf3f 6e3c 3ca7 3b3a 5ea7 d43c 4f29 1d3c
00000370: f205 463d 2fa2 013e 705b ba3d 1ce3 d93d
00000380: 41c4 e4bc 65aa 45bd 236c d4bd 6232 4abb
00000390: e33b 1a3d fd44 c53d 5be2 003d 9b7f 523c
000003a0: 6979 b43c e140 ef3c 5369 083d e77b 6e3d
000003b0: 19a4 fe3c c8b2 ec3c 7795 403c 14a2 2d3d
000003c0: 667d 90bc 49e1 683c d8d4 353d 633a 9c3d
000003d0: bf8a 733d 7d08 b2bb a229 8b3d e454 dcbc
000003e0: 4a77 57bd 58f8 a53d bcf4 523c 2496 cb3d
000003f0: 08c5 0c3c a306 88bd ec39 623d dd30 da3c
-0.0019832514 -0.026425341 0.018929657 0.03050534 0.0019962713 0.024638314 -0.004068427 -0.035680324
-0.031293616 -0.03025187 -0.012670198 -0.004507959 0.012216687 0.016541734 0.02013887 -0.0130447615
0.0271512 0.033030663 -0.018108867 -0.033107504 0.0009434819 0.017444488 -0.0035695136 -0.016089164
-0.021366168 -0.018233338 0.024860796 -0.025789585 -0.0061879717 -0.022056714 0.010847382 -0.031569373
-0.01617903 0.091054775 0.11246621 0.056232765 0.107835606 0.09221202 0.012259563 0.048011135
0.07521566 -0.008407785 -0.045711514 0.051899303 -0.022585543 -0.10366151 -0.11427135 -0.034382734
0.027605042 0.010985959 0.011635724 -0.005566636 0.029920753 0.009416416 -0.030395921 -0.029735448
-0.031997204 0.022645198 0.026553981 0.008814413 0.013535384 0.10590311 0.07628109 0.045554213
0.0013226666 0.091441296 0.09685344 0.085042566 0.066556506 0.09225271 -0.0028571018 -0.045079004
0.045702204 -0.049165055 0.013612091 0.0062597627 -0.08759369 -0.08269816 -0.12636465 -0.033426948
-0.022110393 -0.019839969 -0.025235798 -0.015553411 0.026608884 -0.006155573 -0.03204927 -0.0069755483
0.025362559 0.020657241 -0.03937573 -0.1680056 -0.100694776 -0.01743736 0.029188022 0.04023091
0.039134476 0.046915717 0.031222522 -0.022551283 -0.0794019 0.0638145 0.06602396 0.040122062
0.001160776 0.0071329344 -0.096492544 -0.054664373 -0.13377756 -0.14290203 0.015821794 0.007816222
-0.00071082637 0.016285315 -0.017360471 -0.019016339 0.04573889 -0.10338506 -0.04199798 -0.018134177
0.029877378 0.017813925 0.061519064 -0.003274573 0.10968927 0.10210056 0.12206009 0.05317418
0.062079817 0.04793793 -0.048111945 -0.01570843 -0.0377304 0.019403838 -0.01910992 -0.04502475
-0.14075455 -0.004648398 0.14208184 -0.008796671 0.024587203 0.0044304547 -0.03928853 -0.045207977
-0.025946155 -0.07520358 -0.008980432 -0.009254318 -0.009348797 -0.026577068 -0.007908416 0.0028763483
0.047868706 0.058875088 0.048732392 -0.0026703046 -0.084870264 -0.043332 0.007940965 0.049257003
0.09978987 0.0317656 -0.013709481 0.030349113 -0.05586167 0.051948868 0.19465348 0.012303114
0.0070359334 0.03227784 -0.09283928 -0.10353206 0.00039036624 0.0320892 0.017109524 -0.011856464
-0.049359098 -0.046631444 -0.024855414 0.02437804 0.006718449 0.0121037355 0.042007208 0.05660529
0.030051379 -0.0012929887 -0.018599704 0.048155848 0.07983275 0.04435751 0.023671193 -0.03602911
0.0056423848 0.010656178 0.0881071 0.06696975 -0.025582898 -0.026123993 -0.11526239 -0.030734666
0.038178228 0.122658506 0.033274297 -0.04833784 0.04433812 0.0022285886 0.03276587 0.020573165
0.0031360933 0.046924137 0.04062762 0.047323305 -0.017001994 -0.015595947 0.03506591 0.09401922
0.01454158 0.0007158404 0.025958713 0.009592368 0.048345514 0.12659524 0.090994716 0.10639021
-0.027925612 -0.048258204 -0.10372188 -0.0030852784 0.03765477 0.09632299 0.03146587 0.012847806
0.02203055 0.029205741 0.03330357 0.05822363 0.031084107 0.028893843 0.011754385 0.042390898
-0.01763792 0.014213868 0.044392437 0.07628324 0.05945849 -0.005433141 0.0679505 -0.026895948
-0.052603997 0.081040084 0.012875732 0.099407464 0.008591898 -0.06641891 0.05523102 0.026634628

bias f4 [128]
00000000: a7d4 933b 2308 913d b710 ba3d 7d39 633d
00000010: d037 823d 2cff 003c d739 333d 7899 573d
00000020: 9618 b83d 6f9a 583c 4fbd b93d ed3f 1d3c
00000030: d7f2 8e3d 4e68 66bb 8057 343d 64c3 2cbd
00000040: ae42 dd3c 3ae9 4abc 15a8 183d 7a76 6dbd
00000050: 1b79 1c3c d19d be3d 23e2 86bc a729 acbc
00000060: fa55 52bd 8259 e03c ca9b 12bd f736 203a
00000070: d7cd 653d 8cf1 9d3c d66d 323d d696 523d
00000080: 3c2a f33a cde9 acbc af23 cd3c 81c7 213c
00000090: 5d9f 0fbc 34aa 9e3d 1630 ecbc 18c8 103d
000000a0: 2936 333d a28c 86bc 9580 043c 6242 bf3c
000000b0: 23af 653d 510c 94bb 920b a5bc cf7a d5bc
000000c0: 92ca 013d 33f6 653d c14b c93b dff2 2bbd
000000d0: b58d 2ebd c993 883c 0684 a63d e9c0 a03b
000000e0: 33cc c63c d4cf b4bc f047 8e3c 709b 233b
000000f0: d7c8 883d 050c 523d 7239 4d3d d326 e63c
00000100: b7c3 e3bc 0c8e 7d3d 725f 233d cdea b73d
00000110: 65b7 d23d d0ab b8bc 4a0d 643d 0be8 c0bd
00000120: c5e4 543d cbd6 ee3a bced 113c c7ab 283d
00000130: adfe 0ebd 8c7e 9abd 08f0 583d b438 cb3d
00000140: 0aef 063d a84a d43c 6fa0 903d 0f05 6cbc
00000150: bcda 8c3d 468f 99bd a4f7 8f3d 2fa4 983d
00000160: bd8a ed3c 9fbd 293d 0fe3 ae3d f773 de3c
00000170: 4abd 5fbd 27db 00bd 0821 fb3c cf8a 5d3d
00000180: 869e 6bbc 86c2 5cbd 240c 49bc bc8d c33b
00000190: 5854 ecba a748 00bd 7050 a7bb 4471 203d
000001a0: 2d17 51bc 8638 5cbc 4344 fa3b 6b11 533d
000001b0: b1e4 1f3d 263a 5f3d 97b4 54bd 0579 a13d
000001c0: bacd 693c 2677 70bc bc21 b1bd 7b7b ddbb
000001d0: 63a9 ed3c 1c80 053d ea20 cc3d b2a2 e73c
000001e0: a60c 95bc 62d2 13bc 3373 d93b c609 393d
000001f0: c7bb 453d ffbb 003e f40e de3c 13a9 f73d
0.004511434 0.0708163 0.09085219 0.055474747 0.06358302 0.007873338 0.043756332 0.052636594
0.089890644 0.013220414 0.09069311 0.009597761 0.06979912 -0.0035157385 0.04402876 -0.042178527
0.027009334 -0.012384707 0.03726967 -0.057974316 0.009550358 0.09307445 -0.016465252 -0.021015955
-0.051351525 0.02738643 -0.035793103 0.0006111706 0.056104507 0.019280218 0.04356178 0.05141338
0.0018552016 -0.021107579 0.02504143 0.009874226 -0.0087660225 0.077473074 -0.028831523 0.035347074
0.043752823 -0.01642448 0.008087297 0.023347083 0.056075227 -0.00451807 -0.020147119 -0.026059536
0.031687327 0.056142997 0.006143064 -0.041979667 -0.04261561 0.016672032 0.0813065 0.004905809
0.024267292 -0.022071756 0.017368287 0.0024964474 0.06678932 0.051280994 0.050103612 0.028094685
-0.027803285 0.061903045 0.039885946 0.089803316 0.10288886 -0.022542864 0.055676736 -0.09419259
0.051975984 0.0018221972 0.008906778 0.041179445 -0.034910847 -0.07543668 0.052963287 0.09922925
0.03294281 0.025914505 0.0706185 -0.014405503 0.06877658 -0.0749803 0.070296556 0.074531905
0.02899682 0.041440602 0.08539402 0.027154906 -0.05462388 -0.031459 0.030655399 0.054087456
-0.014381057 -0.05389645 -0.012270961 0.005967824 -0.0018030507 -0.031319287 -0.0051060244 0.03917052
-0.012761873 -0.013441211 0.007637532 0.051530283 0.039036456 0.054498814 -0.051930036 0.07884411
0.01427024 -0.014676845 -0.086490124 -0.006759105 0.029011434 0.032592878 0.09967215 0.028275821
-0.018194508 -0.009022327 0.0066360473 0.045175336 0.04827478 0.12571715 0.02710674 0.12092795

weight f4 [256, 128]
00000000: cb99 e53b a942 a6bd e67e 9fb9 03a4 79bd
00000010: 3a89 9fbd 3900 0bbc 3d0e aabd 0a30 c43c
00000020: 90fa 8d3d 133c e2bc 00fc 01bd ea94 84bd
00000030: 05a1 9d3c 3306 73bd f3db 4dbd 8ee1 71bd
00000040: 8949 a1bc afbe fabc bd5a a33d 2dc7 a33d
00000050: fd1d 76bd ca3a b0bc af14 a83d 8b96 7c3d
00000060: c372 9abd 21a4 1dbd ae3a a9bc e650 a7bd
00000070: ce38 fb3c 969c 23bc 90a8 b1bd 33ca 8abd
00000080: 8a60 fa3c ba3b b33d 0ea0 a83d 0e76 813d
00000090: f8f7 a03d 3d9b 48bd 9b68 023d 4fdc 4f3d
000000a0: ceb4 54bd 2935 893c f281 8fbd 3261 85bc
000000b0: b702 ae3d 4bb1 903d 9a40 70bd 7947 77bd
000000c0: c262 253d 943a b53d 4e18 a3bd ebd5 deba
000000d0: 4883 c93c 0c16 443d 8074 8cbd 30f8 5dbd
000000e0: 32c1 f6bc 407a c43c 17c1 68bd 17da e93c
000000f0: 9fb1 553d b58d 703d ec64 21bd 8dc6 263d
00000100: a45a 703d ac18 a8bd 3222 28bd f90d 513a
00000110: 412e 38bd db27 7bbd ed12 1cbd 672e c5bc
00000120: fe5f ff3b 4371 c9bc f78c 9cbd 9b6f f5bc
00000130: 0162 9c3d 4486 09bd 744a 513c f486 303c
00000140: c118 2ebd 2305 4c3b 4680 4ebd fcd8 743d
00000150: 65fa 27bd 4cb5 1fbd 162a ac3d 29f0 56bc
00000160: 1d01 a03c a2f1 913d 667e edbb 0f33 08bd
00000170: dcf1 333d 9bb8 95bd a890 84bd e1fb 813d
00000180: 8455 9bbd 8df4 acbd e80e abbd 2bf4 6bbc
00000190: 5acd 9bbd d1b4 943d 80c5 5c3d 5c2f 46bd
000001a0: 0f39 013c 97e1 afbd 4731 823d 40a3 993d
000001b0: ce84 8e3d 4f78 6e3d b7e8 91bd 9847 63bd
000001c0: b432 a0bd ef6c acbc 96aa 9d3b 8aed fe3c
000001d0: 256f afbd 23a9 3fbd 9643 953d 4db2 94bc
000001e0: 280a 5e3d 476c 59bd d837 373c 1e7f ae3c
000001f0: 77ac 22bc 83a9 863d 4ae2 883d 6596 533b
00000200: 0b1d f03d 2ca6 0c3e b691 aa3d 6c5a 3b3a
00000210: 493a 71bd 7518 84bc e5db 0d3e c957 f63d
00000220: d13c de3c c9c6 8fbd 6cc5 963d c5c3 4b3d
00000230: f93a e53d 22d5 a3bd bc51 1e3e d00f 8b3d
00000240: 6512 a1bc 1873 b63d 99f2 0cbe 664d 173d
00000250: 92c0 5dba 513b acbd 9891 94bd 98dd 0ebc
00000260: f785 96bd 8378 8bbd 6b5b e03c 2e2d 273d
00000270: 1fa5 0b3e 5b3a 45bd 4dbc 7f3d 0c24 f03c
00000280: 472c e13d 73e2 2c3d ce5f 353d a436 dcbc
00000290: 2d23 8d3c fb82 e13d e608 9dbb 893e 813d
000002a0: f32d d93d 61e7 0cbe f854 45bd 6781 0f3d
000002b0: 5e31 42b9 504f 32bd 9b2a 963d 34fc c3bd
000002c0: dcb8 713d d131 ab3d f8e4 32bc 1a25 3bbd
000002d0: 7fa1 72bd addf 273d 0023 bb3e b90e 913d
000002e0: 7fcd aa3d b073 b13d 70c9 633d 907b c2ba
000002f0: 4ad7 fa3b 3149 303d 88ef 2b3d bc98 263d
00000300: b7af 78bd 7e49 02bd 50bc f2bd 2beb 433c
00000310: f1ee 2c3d 0888 663e 18c0 593d ceb8 f2ba
00000320: a3e9 273e ce73 73bd a0a9 593d 9c5b b93d
00000330: 2116 513d 920c 173d 6994 c0bc 0efa 033e
00000340: 1df9 5c3e 9478 b13d ba12 af3e fcf5 ff3c
00000350: 33ee c93d 1149 8dbc 2091 e6bc 27f2 b2bd
00000360: aff4 f3bc 6299 753e fa8f ac3c 023f 56bd
00000370: aa72 263c d411 37bc 3515 283d bb6b 663e
00000380: 1062 813c 74a0 49bd c78f a13d cba7 253d
00000390: ac53 a9bd 327f 06bd 96d8 d93c da94 023d
000003a0: 92cd f2bd e4bb 913d a9ed 283e 1119 02bd
000003b0: 9820 363d 2444 773d 7246 8dbc 511d 4cbd
000003c0: 8cc7 a23c efdc a2bd 5030 99bd 1b03 89bc
000003d0: 642c fdbd dcf5 77bd c0f6 87bd f7ac 2a3e
000003e0: 7b51 c5bd 3531 073e 58e5 d13d fe5a 98bc
000003f0: 70ca 98bd 3516 0bbd 4eeb 573c 8258 093e
0.007006859 -0.08118183 -0.0003042139 -0.06094743 -0.07789846 -0.00848394 -0.08303497 0.023948688
0.06932557 -0.027616536 -0.031734467 -0.064737156 0.01924182 -0.059332084 -0.050258588 -0.059052996
-0.019688385 -0.030608503 0.07976291 0.07996974 -0.060087193 -0.021512408 0.0820707 0.061667006
-0.0754142 -0.038486604 -0.020657863 -0.08169727 0.030666735 -0.009986063 -0.08674729 -0.06776848
0.030563612 0.08751626 0.08233653 0.06321345 0.07859796 -0.04897617 0.03183804 0.050747212
-0.05193024 0.016748982 -0.07007207 -0.016281698 0.084966116 0.07065066 -0.05865536 -0.060370896
0.040377386 0.088490635 -0.0796362 -0.0017001008 0.024598733 0.047872588 -0.06858158 -0.05419177
-0.03012142 0.023984075 -0.05682477 0.028546376 0.052171346 0.058728892 -0.039402887 0.040716697
0.05868019 -0.08207831 -0.041048236 0.00079747994 -0.044965986 -0.061317306 -0.038103987 -0.024069978
0.0077934256 -0.02459014 -0.076440744 -0.029960444 0.0763588 -0.03357531 0.012774099 0.010774363
-0.042504076 0.0031130991 -0.0504153 0.059777245 -0.04101028 -0.038991258 0.08406465 -0.013118782
0.01953178 0.07126166 -0.007247734 -0.03325182 0.043931827 -0.07310601 -0.064729035 0.0634687
-0.0758467 -0.08445082 -0.083524525 -0.014401476 -0.07607527 0.072610505 0.05389929 -0.04838501
0.007887139 -0.0858795 0.06357055 0.075018406 0.06958924 0.058220204 -0.07124465 -0.0554882
-0.07822171 -0.021048037 0.004811595 0.031119127 -0.08566121 -0.04679216 0.072882816 -0.018151427
0.054208905 -0.053081777 0.011182748 0.021300849 -0.009928814 0.065753005 0.06683786 0.0032285687
0.117242895 0.13735265 0.083285734 0.0007146958 -0.058893476 -0.016124943 0.13853414 0.120284624
0.027128609 -0.07020337 0.07361874 0.049747247 0.11192889 -0.07999636 0.15460867 0.06790125
-0.019662092 0.08908671 -0.13764419 0.036939047 -0.0008459176 -0.08409751 -0.07254332 -0.008719824
-0.073497705 -0.06810095 0.027387341 0.04081457 0.13637207 -0.048151355 0.062435437 0.029314063
0.10994773 0.042208146 0.04428082 -0.026881523 0.017228687 0.11011311 -0.0047923205 0.06310756
0.10604467 -0.13760139 -0.048176736 0.035035517 -0.00018519672 -0.04353267 0.07332345 -0.09569588
0.059014186 0.08359111 -0.010918848 -0.04568968 -0.059236046 0.0409848 0.3655014 0.07082886
0.083399765 0.08664644 0.055612028 -0.001483785 0.007655059 0.04303855 0.04197648 0.040673003
-0.06071445 -0.03180837 -0.11852324 0.011957924 0.04222006 0.2251283 0.05316171 -0.0018518211
0.16397719 -0.05943661 0.053140283 0.09050676 0.051046494 0.036877222 -0.023508267 0.12888357
0.21579404 0.086655766 0.34193975 0.031245224 0.09859886 -0.017246755 -0.028145373 -0.08737593
-0.02977976 0.23984292 0.021064747 -0.052306183 0.010159174 -0.011173684 0.04103585 0.22502033
0.01579383 -0.049225286 0.078887515 0.040443223 -0.08267912 -0.032836147 0.026592534 0.031880237
-0.11855616 0.071159154 0.1649691 -0.031762186 0.044464678 0.06036772 -0.017245505 -0.049832646
0.019870542 -0.07952296 -0.07479918 -0.016725114 -0.123619825 -0.060537204 -0.06638861 0.16667543
-0.09634682 0.13202365 0.10248822 -0.018598076 -0.07460487 -0.033956725 0.01317866 0.1341267

bias f4 [256]
00000000: f3a0 2fbd fa0e 953d e335 2bbd caa6 4ebd
00000010: d733 793c 8f92 c53c dfdd 94bd c9df c33c
00000020: dd6e 883d 69c0 17bd 17a4 773d 5aca 083e
00000030: a23f 933d 68a3 2ebc ff63 6dbc d926 873b
00000040: e86a 683d ae7c 863d 4c99 ae3c 51e8 94bc
00000050: 257a 9dbd af2d 8e3c 9048 563c 6ccf 5fbd
00000060: f600 2cbc a941 0dbd 0a80 39bd 0bca a8bc
00000070: fabb 923d 1632 163e 3375 81bd d006 9abc
00000080: dc91 dc3d 5cf7 c9bc 819f 65bc f4b0 443d
00000090: 0d8f 60bc 54de 2b3d 1c23 533b 74ba 3b3e
000000a0: e897 df3d 606d a33d 2ffc ac3d 87ee 53bb
000000b0: 7444 003a c5d4 293c 6687 c53c 463d cfbc
000000c0: 89d3 cabc 9190 4ebd e2f4 b03b 4d5e 163e
000000d0: 98bd 05be 9b80 b43d 81bc 9abd beee ad3c
000000e0: a9e0 b9bd 25cd 56bd 8967 933c 53e4 9b3c
000000f0: 8380 a7bd 2f0c bd3c e0f8 eb3c 1e50 01bc
00000100: eb38 27bd 9a8c 173d 42f2 ce3c 1b62 943d
00000110: a7c6 303d a2e4 4c3d 3100 123d 6c07 56bc
00000120: 8ba9 1fbd 1c15 423e 0f0e aebc 9381 f83d
00000130: e8db bc3b 495d 7abc dd68 8dbd 90f6 463d
00000140: b3a1 36bc 5045 dfbd 391e ad3d cd92 c8bc
00000150: 747f adba 1ab3 85bb 6976 37bc c986 ec3d
00000160: 3371 253d 3721 68bd 2a40 d13c 800d b33c
00000170: af49 73bc 421b b13b 0212 da3c 7379 a83d
00000180: 073b c7bc 00c0 94bd 1698 193e 94fd 853c
00000190: 5d88 f33d 74a5 4b3d 3b28 92bd c673 86bd
000001a0: af91 25be 27c2 b53d 1bc9 d3bc 8496 b0bd
000001b0: bb48 cd3d a548 083e 167d 8dbd 6f88 583d
000001c0: f1ca a0bd 8adc 37bb 3309 6c3d 2a12 623d
000001d0: 24fd 073c 7eeb 77bd ab76 bb3d b7b3 a9bd
000001e0: 102a 323d 77e7 5f3d b614 a63d 6ded 2fbd
000001f0: 08e9 353c 5885 6dbd 6c68 8c3d ccbc cfbd
00000200: ec72 3ebc a2df 963c 6a9c 32bd 5f52 803d
00000210: c4de d3bc 5f0b 173e 1971 433d 0a15 503d
00000220: 519e ebbd ca1d d7bc 3f72 d23d 8bab 003e
00000230: d420 4c3d 3e98 113e 6856 153d d163 80bd
00000240: 7ae7 5cbc f1a4 213e b2db 98bc 7363 9dba
00000250: 13da 903c 88a3 4d3d 9443 843c 4a0a d53d
00000260: afd2 febc defd 383d 5e31 043d 5325 5b3c
00000270: 3022 833b 934c 75bd 61e8 423c 05bc 333c
00000280: a8cb 873d 0aba f23b d9a1 913d b6d9 0a3c
00000290: e97b 173e 9c7d 70bd 0049 d83b 3fe0 1a3c
000002a0: ac80 a8bd d153 bdbd 6bb9 0ebd f584 163d
000002b0: 7d51 b93d 3e2c 33bd 38fd cd3d aad9 583d
000002c0: 525e b6bc f8ba 113e 7deb aa3a a4c6 bc3d
000002d0: 2954 27bc d509 163d 6812 66bd 26ff 153e
000002e0: a61c c2bd 9756 173d f2ab 223e 843f 6a3d
000002f0: 4700 e6bb 3969 88bd 7714 f33d cd51 3f3d
00000300: 797d fe3c c164 743c b12d 6e3b ea0f de3c
00000310: de02 fdbc 52cc 003e 909a dc3d 4000 8c3c
00000320: 7594 e4bc 061c 2f3d f450 883d e6be c83d
00000330: 499f d93c 1a0c ccbc e365 8e3b 8577 cdbc
00000340: ac1b b0bb 1dd4 353c 1e0f 88bc e86b 613c
00000350: 6666 e73c 989b a5bc c935 713d 31c1 16bb
00000360: 30d9 fd3d 79c8 9fbd 3301 b5bc f484 dcbc
00000370: 78fb e13b 429d 8a3c 7bc5 e63d d0d9 5bbc
00000380: 07bb ac3d 0547 2a3d 4819 683d 0a3f 0b3e
00000390: 84d0 e8bd 4525 433d f6c2 80bd f81b d83d
000003a0: 7575 8abd cab8 a13d 4102 0b3e 993e a73c
000003b0: 9826 67bc c172 933d 8992 07bb 32b8 de3d
000003c0: c93a fe3c a7d9 c03d 4028 bebd 6281 9cbd
000003d0: d43c 863d a81d 953c 0825 15bd 2104 b5bd
000003e0: cee5 973d 971d 35bd 822c 9cbc c4fd 303e
000003f0: bb37 003e 9195 003e 0b18 d63d 7348 0c3e
-0.042878103 0.07278247 -0.041799437 -0.05045203 0.0152101135 0.024117736 -0.07268881 0.02391042
0.066617705 -0.03704873 0.060459223 0.13358441 0.07189871 -0.010659076 -0.014489173 0.004124504
0.05674258 0.065667495 0.021313332 -0.018177183 -0.07689313 0.017355768 0.013078824 -0.054641172
-0.010498276 -0.034486447 -0.045288123 -0.020604154 0.0716476 0.14667544 -0.06321182 -0.018802077
0.10770008 -0.024654083 -0.0140150795 0.04802032 -0.013705981 0.041960075 0.0032216972 0.18332845
0.10917646 0.07979846 0.08446538 -0.0032338218 0.0004893013 0.01036567 0.024112415 -0.025297772
-0.024759071 -0.050430838 0.005400286 0.1468441 -0.13060606 0.08813592 -0.075554855 0.021232005
-0.09076054 -0.052441735 0.017993705 0.019029772 -0.081788085 0.023077099 0.028805196 -0.007892637
-0.040825766 0.036999322 0.025262002 0.07245275 0.0431582 0.05002273 0.035644714 -0.013063293
-0.03898005 0.18953365 -0.021246938 0.12134089 0.0057635196 -0.01528103 -0.06904767 0.048574984
-0.011146951 -0.10901892 0.0845303 -0.024484063 -0.0013236837 -0.0040801885 -0.011197665 0.11549146
0.04039116 -0.0566723 0.025543291 0.021857023 -0.0148491105 0.0054048607 0.026619915 0.082262896
-0.024320139 -0.072631836 0.14999422 0.016356267 0.118912436 0.049718335 -0.071365796 -0.06565051
-0.16168855 0.08874922 -0.02585273 -0.086224586 0.10023638 0.13308962 -0.06908624 0.05286449
-0.07851208 -0.0028055036 0.05762596 0.055193104 0.0083000995 -0.060527317 0.091534935 -0.08286231
0.043497145 0.0546641 0.08109419 -0.042951036 0.011102922 -0.057988495 0.068558544 -0.10143432
-0.011624079 0.018417183 -0.0436062 0.06265711 -0.025863059 0.14750431 0.04771528 0.050801314
-0.11504806 -0.026259322 0.10275697 0.12565438 0.049835995 0.14218232 0.036459357 -0.062690385
-0.013482923 0.15785576 -0.018659446 -0.0012007788 0.01768211 0.050204784 0.016145505 0.10402353
-0.031106321 0.04516398 0.032273643 0.013375598 0.004001878 -0.05988748 0.011896224 0.01097012
0.06630641 0.0074074315 0.07110948 0.008474758 0.14793362 -0.05871354 0.006600499 0.0094528785
-0.08227667 -0.09244502 -0.034844797 0.03674789 0.09048746 -0.043743365 0.10058063 0.052941956
-0.022261772 0.14231479 0.0013040152 0.09217575 -0.010212936 0.03663047 -0.056169897 0.14648113
-0.094781205 0.036947813 0.15885904 0.05718948 -0.007019076 -0.06660695 0.11869138 0.04670887
0.03106569 0.0149166 0.0036343152 0.027107198 -0.030885156 0.12577942 0.10771668 0.017089963
-0.027902821 0.042751335 0.066560656 0.09802036 0.02656521 -0.024908114 0.004345642 -0.025081405
-0.0053743925 0.011097935 -0.016608771 0.013758637 0.02824707 -0.020215794 0.058889184 -0.0023003335
0.12394941 -0.07801909 -0.022095298 -0.026918866 0.0068964325 0.01692069 0.11268135 -0.01341863
0.0843411 0.041571636 0.056664735 0.13598266 -0.11367896 0.047642965 -0.06287186 0.105522096
-0.067606844 0.07896574 0.13575079 0.020415591 -0.014108323 0.07199622 -0.0020686707 0.10874976
0.03103389 0.09416514 -0.09285021 -0.07641865 0.06554571 0.018202618 -0.03641227 -0.08838678
0.07416879 -0.044217672 -0.019064192 0.17284304 0.1252126 0.12557055 0.104538046 0.13699512

weight f4 [10, 256]
00000000: ccf6 20bd 4608 9e3d 9b5f 3bbe 7ad6 2fbe
00000010: 7af6 9abd c7df edbd 9e63 b7bd ad44 4fbd
00000020: 63c5 9abd ad2d 803d b715 2bbe b073 01be
00000030: e6cb 82bd bf1a 4a3d b309 a93d 5e37 a63c
00000040: 2d00 d53d 176b 25be aa95 cf3d da0a e83d
00000050: 2104 c5bd 9bf2 07be 10e7 5bbd 3c66 81bd
00000060: 0c71 f2ba dcd0 e6bc f5a3 debc 9a47 abbd
00000070: 6936 fe3d 9bb8 c9bd f1cb 10be 576b d13d
00000080: 6e52 583c 9f8c 2fbd a4a3 7abe b545 c93c
00000090: 3ffc 84bd 7a38 02bc 6a9b ef3a 1cd8 533d
000000a0: 2fcf 273e 5211 49bc 3a6a cebd 2bad 8cbd
000000b0: e66d 953d 175e 503a 962b c2bd 9af1 dbbd
000000c0: bf0d 043e 9b22 e1bb c836 b93d 17d0 383d
000000d0: 829b 8e3d d316 173d 932d aabd 8278 74be
000000e0: 649c f9bd 6097 0cbd f699 db3d 2f01 013d
000000f0: 68f1 eabb 7bd9 653d b7ea 093e e053 213d
00000100: 4707 18be 479f 94bd 0a40 b7bc b90f 64be
00000110: 262c 40bb f7d2 35be a876 30be 25bc 17bd
00000120: 8dae 40be eee5 c63d b4ba fb3d d330 49be
00000130: 4d83 9bbd c9a7 d83d 14f1 5bbc 1e14 73bd
00000140: 7e00 e43d adf4 113d 49a2 1abe bb24 09be
00000150: 15b9 3ebe 2ba0 ef3d f9c3 b43d 798f 9c3d
00000160: 3a35 09be 94af 563d 9b82 38be a8b9 de3d
00000170: 99aa 113d dd1c 97be 8cc7 d5bd 7804 3b3d
00000180: 9b11 163d a33b 0dbd 36f2 263d a45e dc3d
00000190: 6489 853d b289 7bbe 87c2 19be 4b80 2abd
000001a0: 92c6 7bbd d25f 9a3d d1bd 27be 86d3 df3c
000001b0: f8fc bdbd ca83 01be 6b3c 7c3d e190 bcbc
000001c0: 5056 8cbd 107e e63d 731d 3dbc 3fb4 f33d
000001d0: dfec 43be bb02 873d 8cc3 32be b010 f0bc
000001e0: 531e 933d 8cdf c03d c481 b4bd d800 56be
000001f0: 2a01 13be cda0 b4bd 3489 56bd e35c 86be
00000200: e8f6 17be 74e4 72be 7b4f b43d 2bb7 9abd
00000210: 3cdb cc3d ca02 8a3d d714 a13d e890 32be
00000220: ad0a 90bd 2f73 1a3d f26f a93d f73a 1dbe
00000230: 2a24 dabc a0db d13d 2e66 8d3c 2550 7e3d
00000240: 2e96 893d 1207 843d 44d6 bb3d aa3d b73d
00000250: de3d 45be ad8b 57be 1b12 bebd a29f 023e
00000260: 9b69 05be 596e 583d c43a 4c3d 9db4 8fbc
00000270: 034a babd 5aea 4ebd 4089 3f3d 8334 f9bd
00000280: eb75 733d 751a aabb b1c6 b4bd 3af3 88bc
00000290: cf91 03be 29bd c83d a2cc 083e 0196 b6bb
000002a0: 9f99 b6bc a736 0fbe fefc 093d a92d 84bd
000002b0: d629 edbc a8d1 833d 0d8e 9d3c 0dd1 26be
000002c0: d483 ae3d 08f9 0cbe 3042 eabd 6141 e6bd
000002d0: a3ac 373c 9be8 e9bc 1e22 77bd 1689 03be
000002e0: bb2d 7d3c 5c30 e53d 5afd 1dbe b33e 50bd
000002f0: 7ae3 70be 6f6f 663d fc4e 113d 7455 f8bd
00000300: 7f9a fbbd f72c 84bd 3904 82be 39c1 ef3d
00000310: b232 763d e1f0 aabb 1f38 a5bb 909c b03d
00000320: 787a 833b 02aa ea3d 5a5c d43d 5707 10be
00000330: da4e 34be 79c5 cbbc 3be5 2bbd d850 c0bd
00000340: 4f8b 61be f483 6dbe 2ea6 28bd 3bf6 ebbd
00000350: 6746 14be 36f0 c73d 21fd 763c 1517 75bd
00000360: 0ad1 e33d 188d 0a3d 408f 3bbe 9820 69bd
00000370: 26da 2dbd b5c5 2ebd 61b5 5abe 8ecf 10be
00000380: 57f6 48be 4f47 733d 7064 873d 6d78 bebd
00000390: d48f 13be a784 45be b1a3 53bd c746 d4bd
000003a0: 10d6 1b3d f4b1 7c3d 5952 ee3c e91a c43d
000003b0: 2769 4c3d 3532 dfbd 90c3 a8bb 86d5 87be
000003c0: 4506 8cbc 5279 43be 434d 1dbc 68d7 a43d
000003d0: b553 18bc d130 79bc 359f e3bc 894c 003e
000003e0: a1e7 143d b4f6 d4bb f131 b33d 3a97 653d
000003f0: 814a 063d 8783 433d c31e 863c b7ad 92bd
-0.039297864 0.07716422 -0.1829819 -0.1717166 -0.07566543 -0.11614948 -0.08954547 -0.050602604
-0.0755718 0.06258712 -0.16707502 -0.12641788 -0.06386547 0.049341913 0.08253803 0.020290073
0.10400424 -0.16154133 0.10135968 0.11330195 -0.09619928 -0.1327614 -0.053687155 -0.06318328
-0.0018496825 -0.028175764 -0.02717779 -0.08363266 0.12412722 -0.09849664 -0.14140297 0.102255516
0.0132032465 -0.042858716 -0.24476486 0.024569372 -0.064934246 -0.007948035 0.001828057 0.05171977
0.16387628 -0.012272196 -0.10078855 -0.06868967 0.07296352 0.0007948591 -0.094809696 -0.10739441
0.12895869 -0.0068705804 0.09043652 0.045120325 0.069632545 0.036887 -0.08309474 -0.23874095
-0.12188032 -0.03432405 0.10722725 0.03149527 -0.007169891 0.05611561 0.13468443 0.03938663
-0.14846526 -0.07256942 -0.022369403 -0.22271623 -0.002932319 -0.17756258 -0.17232764 -0.037044663
-0.18816586 0.09711824 0.1229147 -0.19647531 -0.07593403 0.105788775 -0.013424177 -0.059345357
0.111329064 0.03563373 -0.1510097 -0.13392918 -0.1862529 0.117004715 0.08826441 0.07644553
-0.1339921 0.052413538 -0.18018572 0.10875255 0.035563085 -0.29514208 -0.10438451 0.04565856
0.036637884 -0.034480702 0.040758334 0.10760239 0.06520346 -0.24564245 -0.15015613 -0.041626256
-0.06146867 0.075378075 -0.16381003 0.027322542 -0.092767656 -0.1264793 0.061581057 -0.023018302
-0.068524 0.11254513 -0.011542666 0.118996136 -0.19133328 0.06592318 -0.17457408 -0.029304832
0.07183518 0.09417638 -0.08813813 -0.2089876 -0.14355913 -0.08819733 -0.05237694 -0.26242742
-0.14840281 -0.2371996 0.08804222 -0.07554468 0.10002753 0.06738813 0.07865303 -0.1743809
-0.07033286 0.037707504 0.08273305 -0.15354525 -0.026628572 0.10246968 0.017260637 0.06208815
0.067180976 0.06446661 0.09171727 0.08947308 -0.19261882 -0.21049376 -0.09280797 0.12756208
-0.13028567 0.05283961 0.04986073 -0.017542178 -0.09096148 -0.050516464 0.04676175 -0.12168219
0.059438627 -0.005191142 -0.0882696 -0.016717542 -0.1284859 0.098017044 0.13359311 -0.005572081
-0.02229005 -0.13985692 0.033688538 -0.064540215 -0.028950613 0.06436473 0.019232774 -0.16290684
0.08521238 -0.13766873 -0.114384055 -0.11242939 0.011210593 -0.028553298 -0.06033527 -0.12845263
0.0154527975 0.111908644 -0.15428677 -0.050841045 -0.23524275 0.056258615 0.035475716 -0.12125674
-0.12285327 -0.06453889 -0.25393847 0.11706776 0.06010694 -0.0052167033 -0.0050420905 0.08623612
0.004012402 0.11458208 0.10369177 -0.140653 -0.17608204 -0.024874436 -0.041966658 -0.0939042
-0.22025798 -0.23194867 -0.041174106 -0.11521574 -0.14479981 0.097626135 0.015074999 -0.059836466
0.111238554 0.033825964 -0.18316364 -0.05691585 -0.04244437 -0.042669017 -0.21358253 -0.14141676
-0.19625221 0.059394177 0.06610954 -0.09300313 -0.14410335 -0.19288884 -0.05166978 -0.10365062
0.038045943 0.061693147 0.029092 0.09575445 0.04990497 -0.10898248 -0.005150266 -0.26530093
-0.017092833 -0.19089249 -0.00960094 0.08048898 -0.009297301 -0.015209393 -0.027785877 0.12529196
0.03635371 -0.006499136 0.0874976 0.056052424 0.032785896 0.047732856 0.01637209 -0.0716204

bias f4 [10]
00000000: b944 a73c 0a8b a43d 25d4 70bd 0801 093b
00000010: 3ece 353b f6bb 88bc 8614 a13d fbfb 4c3d
00000020: b376 09be 9bf5 ec3c
0.020418512 0.08034332 -0.058796067 0.0020905156 0.0027741338 -0.01669119 0.07865243 0.050044995
-0.13424186 0.028925708
