第一题/fc_mnist.pth (torch, 548754 bytes, 6 tensors)

weight f4 [128, 784]
0.016038854 -0.0231069 0.008322738 -0.035166964 0.023069624 -0.018097717 -0.007847952 -7.485226e-05
-0.025779277 0.0045948513 0.009053297 0.013719298 -0.0027283393 0.00081489235 -0.00028387085 -0.0079296455
-0.017789612 -0.02652303 0.0073626675 -0.026193187 0.02034437 0.027915742 0.016167615 0.028133716
0.005542401 0.025545709 -0.028109636 0.005815815 0.009955771 -0.029305795 -0.009314887 -0.015167795
-0.02560534 -0.064313315 -0.031084968 -0.020426229 -0.09568148 -0.07863514 -0.039129056 -0.053706296
-0.06582502 -0.10243891 -0.08013888 -0.11796888 -0.1256947 -0.06365535 -0.09202133 -0.00703796
-0.011323711 0.010672834 0.024973929 -0.018180873 0.029207032 0.033564772 -0.03140176 -0.03430049
-0.025855904 -0.0052505657 0.0008767508 -0.008417202 -0.027547995 -0.043204274 -0.029772898 -0.02367186
-0.044227164 -0.094641365 -0.12706833 -0.013446512 -0.05372451 -0.1561486 -0.18006049 -0.03690821
0.008399789 0.019643016 -0.1302184 -0.13056935 -0.010910581 0.045201883 0.09380925 -0.005815515
-0.004967343 -0.019648034 0.035344545 -0.017482886 -0.013523648 0.027614634 0.014872909 0.01647574
-0.012563052 -0.10808493 -0.080245025 -0.07604742 -0.050666545 -0.073964804 -0.055613 -0.012897873
-0.09999572 -0.15015186 -0.052449197 -0.08507117 -0.088774174 0.023823688 0.026707571 -0.0029099747
-0.026770117 -0.029184828 -0.050740447 -0.04996508 -0.15227413 -0.038574003 0.00870755 -0.027997555
0.028748501 0.034910407 0.0068548843 -0.02578249 0.014063092 -0.046310898 -0.059760496 -0.05106162
-0.09740702 -0.17530642 -0.12240709 -0.08057415 -0.070195004 -0.11093087 -0.0041754716 -0.040381167
-0.019941546 -0.037962545 0.029726092 0.01590678 0.046254504 0.08618353 0.13343532 0.11009171
-0.13273051 -0.027634796 0.07034907 -0.03157647 -0.033429362 0.031049378 0.029001804 0.08787097
0.08561261 -0.015458465 -0.010573279 -0.06810443 -0.03688507 -0.028424593 -0.051988438 -0.0025938118
-0.036770448 -0.06547703 0.010009424 0.015139191 0.047241867 0.032965932 0.00086414505 0.04646106
0.02447827 0.022149103 -0.010344865 0.11260243 0.055968814 0.0051463624 0.075630546 -0.030706331
-0.006430844 -0.00462438 0.13151264 0.07506966 0.055373956 -0.10453742 -0.15444942 -0.05724372
-0.06671951 -0.038035817 -0.03155849 -0.0040451298 -0.0004077653 0.0039500515 -0.022259139 -0.016326081
0.031163756 0.03825147 0.04844796 0.039133113 0.08559034 0.059803456 0.03535299 0.108386226
0.0379571 0.034310088 0.057073258 0.09178128 0.01703719 -0.022740385 0.11493084 -0.026495479
-0.054508176 -0.15124828 -0.030201092 -0.069324315 -0.061916668 -0.029203136 -0.060059194 0.011090036
0.02745667 0.008355858 0.05262457 0.00485415 0.046501257 0.06417081 0.03626859 0.0064251213
0.06465886 0.123017125 0.01963931 0.07602343 0.218264 0.09103054 0.17539942 0.10959096
0.031506803 -0.029958915 0.13319044 -0.07577521 -0.1030894 -0.08697538 -0.019234411 -0.021050513
0.019978318 0.05940069 -0.011155986 0.06512138 0.047151256 -0.018907746 -0.005790038 0.008686085
0.0045811622 0.04984498 0.028319838 0.051621977 0.019744484 0.040426597 0.084788844 0.07166186
0.113593884 0.22723597 0.22396106 0.10441226 -0.0026786602 -0.024581997 -0.015298016 -0.030081393
00000000: ea63 833c ae4a bdbc 185c 083c 3c0b 10bd
00000010: 82fc bc3c aa41 94bc b294 00bc 00fa 9cb8
00000020: 102f d3bc 6890 963b 4854 143c e8c6 603c
00000030: f0cd 32bb 809e 553a 80d4 94b9 58eb 01bc
00000040: 85bb 91bc d346 d9bc 8842 f13b 1893 d6bc
00000050: 3ca9 a63c 8eaf e43c f271 843c ae78 e63c
00000060: 089d b53b 3c45 d13c 2e46 e6bc 9892 be3b
00000070: 881d 233c b512 f0bc 789d 18bc 5882 78bc
00000080: 4ac2 d1bc b3b6 83bd e7a5 febc e854 a7bc
00000090: a7f4 c3bd 760b a1bd ca45 20bd 22fb 5bbd
000000a0: 45cf 86bd 7ecb d1bd da1f a4bd ab99 f1bd
000000b0: 1db6 00be bc5d 82bd ae75 bcbd b09e e6bb
000000c0: 1687 39bc 1cdd 2e3c 2096 cc3c 0ef0 94bc
000000d0: 9643 ef3c 377b 093d 229f 00bd ac7e 0cbd
000000e0: c3cf d3bc f00c acbb c0d5 653a 4ee8 09bc
000000f0: 55ac e1bc f7f6 30bd 4be6 f3bc 7deb c1bc
00000100: 8b27 35bd 55d3 c1bd 331e 02be c24e 5cbc
00000110: 3b0e 5cbd 6be5 1fbe c761 38be 102d 17bd
00000120: 459f 093c 64ea a03c f957 05be f9b3 05be
00000130: 4bc2 32bc 9c25 393d 101f c03d 1390 bebb
00000140: 18c5 a2bb eaf4 a0bc 71c5 103d 4538 8fbc
00000150: 4a92 5dbc 1638 e23c 80ad 733c 22f8 863c
00000160: 42d5 4dbc a25b ddbd 8157 a4bd c0be 9bbd
00000170: b987 4fbd dc7a 97bd 75ca 63bd 9a51 53bc
00000180: 8eca ccbd 69c1 19be f8d4 56bd cb39 aebd
00000190: 3ccf b5bd e529 c33c d6c9 da3c 46b5 3ebb
000001a0: 014d dbbc 0515 efbc 37d5 4fbd 2fa8 4cbd
000001b0: c0ed 1bbe c6ff 1dbd 1daa 0e3c 215b e5bc
000001c0: fa81 eb3c 37fe 0e3d f09e e03b cd35 d3bc
000001d0: e268 663c 7fb0 3dbd 6cc7 74bd fd25 51bd
000001e0: 557d c7bd 8783 33be 92b0 fabd 0f04 a5bd
000001f0: 66c2 8fbd b92f e3bd 65d2 88bb b966 25bd
00000200: 745c a3bc 9d7e 1bbd 2284 f33c ef4e 823c
00000210: 5d75 3d3d fe80 b03d 45a3 083e c377 e13d
00000220: 82ea 07be 5e62 e2bc 2c13 903d 5456 01bd
00000230: 3aed 08bd 445b fe3c 3195 ed3c b2f5 b33d
00000240: aa55 af3d 8045 7dbc 8c3b 2dbc 567a 8bbd
00000250: cd14 17bd b1da e8bc d4f1 54bd f1fc 29bb
00000260: 9c9c 16bd d218 86bd 91fe 233c 5f0a 783c
00000270: b080 413d 4907 073d cb87 623a f44d 3e3d
00000280: a786 c83c 0972 b53c 827d 29bc 1a9c e63d
00000290: 8e3f 653d d1a2 a83b 30e4 9a3d d88b fbbc
000002a0: d4b9 d2bb 1c88 97bb 40ab 063e 1fbe 993d
000002b0: cdcf 623d b717 d6bd fd27 1ebe 6478 6abd
000002c0: 3da4 88bd 72cb 1bbd 7a43 01bd 028d 84bb
000002d0: 55c9 d5b9 6f6f 813b cc58 b6bc 46be 85bc
000002e0: 224b ff3c 93ad 1c3d 5e71 463d 0b4a 203d
000002f0: fd49 af3d 78f4 743d 4cce 103d 99f9 dd3d
00000300: e778 1b3d bc88 0c3d a6c5 693d d3f7 bb3d
00000310: 9491 8b3c 0b4a babc dc60 eb3d 0c0d d9bc
00000320: f743 5fbd d4e0 1abe 4868 f7bc e8f9 8dbd
00000330: 559c 7dbd 6a3b efbc a100 76bd fbb2 353c
00000340: cfec e03c 02e7 083c dc8c 573d 900f 9f3b
00000350: 1a78 3e3d fc6b 833d 5f8e 143d d389 d23b
00000360: dd6b 843d 67f0 fb3d 9ee2 a03c 2cb2 9b3d
00000370: 9980 5f3e 386e ba3d e89b 333e 3a71 e03d
00000380: 470d 013d 666c f5bc 1363 083e 0930 9bbd
00000390: 8920 d3bd 2620 b2bd 7c91 9dbc 2072 acbc
000003a0: 92a9 a33c 234e 733d 99c7 36bc 5c5e 853d
000003b0: ad21 413d 6be4 9abc 5cba bdbb 1550 0e3c
000003c0: 931d 963b 402a 4c3d 01ff e73c 9171 533d
000003d0: 2fbf a13c 5c96 253d c6a5 ad3d 74c3 923d
000003e0: e9a3 e83d 8cb0 683e 0c56 653e 18d6 d53d
000003f0: 768c 2fbb 2f60 c9bc 88a4 7abc 416d f6bc

bias f4 [128]
0.027106356 0.08446907 0.09667441 0.018215943 -0.007509272 0.008911045 0.002968294 0.093374595
-0.035894476 0.017079985 -0.023719562 0.04686907 0.125059 0.058700588 0.043739147 0.0010428769
-0.019324156 0.058325972 0.045745358 0.02218151 -0.09310773 0.044103697 -0.033587087 -0.02547581
0.079051666 0.091416836 0.1034805 0.11165821 0.016420133 0.06849555 0.0030201797 -0.030157045
-0.007775258 0.10072943 0.027588677 0.047317374 0.0637838 0.05788878 -0.03940905 0.007856357
-0.09640248 0.010726601 -0.032211844 -0.04199694 0.037553612 0.019254373 0.09299488 -0.021656342
0.023639357 0.01519811 0.018072905 -0.03112483 0.026255876 0.051229347 0.068629 -0.0059398036
0.0048102033 0.056343205 0.016944245 0.04275388 0.021475248 0.08520573 0.032417424 0.06089976
0.048548706 0.07435001 -0.043885373 0.016952112 -0.060567953 -0.039378133 0.08081858 -0.06583385
0.017416783 0.032874294 0.094300084 -0.01198657 0.039764516 0.09167787 0.044148102 0.07627407
0.014824204 0.051032465 -0.017168557 0.004956061 0.0048653157 0.06035233 0.050921466 -0.018125879
0.0022979903 0.038909588 -0.021393722 0.045117084 -0.011199142 0.07467066 0.04651416 0.03850497
0.079567626 0.041633572 0.009383554 -0.0021653564 -0.022954466 -0.022105508 -0.06432747 0.13636814
0.08946797 0.09860853 0.028654166 0.0032399339 0.060220618 0.027675062 -0.033016115 -0.03274296
-0.02992876 0.022757499 -0.033599317 -0.08358475 -0.022301514 -0.010090808 0.041988738 0.15768734
0.009799306 0.03565873 0.008053524 -0.054026127 -0.004429283 0.071404986 -0.05027827 0.03172842
00000000: 260e de3c 1ffe ac3d 3cfd c53d 9a39 953c
00000010: 5710 f6bb a2ff 113c b687 423b 2e3b bf3d
00000020: 1606 13bd 53eb 8b3c 874f c2bc c8f9 3f3d
00000030: 770f 003e 0770 703d d227 333d 24b1 883a
00000040: b14d 9ebc 37e7 6e3d 7c5f 3b3d 00b6 b53c
00000050: 44af bebd 14a6 343d 9d92 09bd a5b2 d0bc
00000060: d7e5 a13d c038 bb3d 96ed d33d 0fad e43d
00000070: 8483 863c 6547 8c3d 35ee 453b e80b f7bc
00000080: 97c7 febb 3b4b ce3d a601 e23c ddcf 413d
00000090: 15a1 823d c91c 6d3d 626b 21bd f3b7 003c
000000a0: aa6e c5bd a0be 2f3c 91f0 03bd fc04 2cbd
000000b0: d1d1 193d 59bb 9d3c 1a74 be3d a468 b1bc
000000c0: 53a7 c13c 7e01 793c a10d 943c 80f9 febc
000000d0: 9016 d73c ddd5 513d 5c8d 8c3d afa2 c2bb
000000e0: e99e 9d3b 22c8 663d a8ce 8a3c b11e 2f3d
000000f0: dcec af3c 5780 ae3d 22c8 043d 0772 793d
00000100: 02db 463d d144 983d 26c1 33bd 28df 8a3c
00000110: 1a16 78bd f74a 21bd 3684 a53d e6d3 86bd
00000120: a4ad 8e3c 32a7 063d 6720 c13d 5263 44bc
00000130: 1ee0 223d 9bc1 bb3d a4d4 343d 9435 9c3d
00000140: 38e1 723c 6b07 513d 13a5 8cbc 7466 a23b
00000150: 3a6d 9f3b 0134 773d 0793 503d b97c 94bc
00000160: e199 163b a95f 1f3d e341 afbc b1cc 383d
00000170: 9b7c 37bc eeec 983d a285 3e3d 63b7 1d3d
00000180: 5af4 a23d f787 2a3d 7abd 193c a7e8 0dbb
00000190: 010b bcbc 9c16 b5bc 1fbe 83bd 17a4 0b3e
000001a0: fc3a b73d 45f3 c93d 24bc ea3c 1255 543b
000001b0: e5a9 763d d0b6 e23c e83b 07bd 7b1d 06bd
000001c0: 292d f5bc ef6d ba3c 709f 09bd 7b2e abbd
000001d0: aab1 b6bc eb53 25bc 62fc 2b3d ca78 213e
000001e0: 458d 203c e30e 123d eef2 033c 804a 5dbd
000001f0: 8523 91bb c73c 923d 96f0 4dbd a9f5 013d

weight f4 [256, 128]
0.046212357 -0.085379586 0.037505306 -0.0067344457 -0.045486625 0.0619774 -0.037343886 0.07037977
0.115007654 -0.06883068 -0.008483652 -0.05106324 -0.017364198 0.052964427 -0.034607783 -0.10934332
-0.02836016 -0.17723978 0.12793319 0.0997731 0.01580271 -0.022943487 0.10119573 -0.06649281
-0.10633111 0.12963113 -0.13452008 -0.10536223 -0.06926337 0.27181056 -0.052076686 0.14513564
-0.05364652 0.024331905 0.17669702 -0.00959678 -0.011714495 0.08911334 -0.02348037 -0.06432656
0.16624635 -0.04783609 0.032806993 -0.022870408 -0.08330878 0.0857049 -0.22168197 -0.032735676
-0.110914305 0.11674963 0.052815538 0.0065437485 0.15404545 -0.04319086 0.17308302 0.0021257708
-0.056458782 0.09496468 0.07270174 0.019806227 -0.1028185 -0.10137332 0.0047244537 0.07208591
-0.118020564 -0.04456843 -0.1444866 0.11120704 -0.03776122 -0.011879643 0.07804238 -0.040365327
0.016548043 0.12644137 0.08291234 0.059516445 0.022401294 -0.029378083 0.009457843 -0.054578356
0.14004888 0.1398118 -0.17294817 -0.066545546 0.07841438 0.019965908 -0.11172045 0.10192257
0.122068934 -0.009502551 -0.012781089 0.0671222 0.10946241 0.006039883 -0.13637272 -0.04202133
0.15571357 -0.04489686 0.069897585 0.08527481 -0.11869742 0.030490426 0.05584955 -0.032019023
-0.17984106 -0.1548106 0.101717494 0.08044196 -0.063859984 0.13427106 -0.012030553 -0.13871963
0.094621584 -0.03832696 -0.011372061 -0.072907634 0.08307823 0.11904175 -0.08563754 -0.022348892
0.005122696 -0.054359205 0.08954002 0.080918215 0.002086053 0.18570462 -0.10108987 0.013657909
0.061265554 -0.073522 0.056706384 0.10419498 0.09410137 0.108729154 -0.013695193 0.04243427
0.1375002 -0.23494264 0.12915342 -0.064607196 -0.047802087 0.040497176 0.14374258 0.070222326
0.027174583 -0.024510706 0.07580923 0.09813266 0.08658171 -0.10686848 0.06424145 -0.008677542
-0.016390018 0.071635395 -0.089158565 -0.1253284 -0.19064076 0.14928807 0.05231664 0.00846748
0.06863871 -0.020458708 0.0832086 0.054492284 0.11882493 0.022731906 -0.05823368 0.017418852
-0.15830743 0.08165816 3.7713613e-05 0.068471804 -0.02071466 0.010791587 -0.10016973 -0.04421655
0.098952755 0.15801427 0.080360316 0.043823592 -0.00019744057 -0.11702031 -0.0864717 0.03634109
0.028407937 0.18683067 0.03907972 0.005039881 0.036318894 -0.031618267 -0.043823414 0.027486041
-0.15406077 -0.023930175 -0.109365694 -0.036521986 -0.098311804 0.0069823456 -0.007703454 -0.108393505
-0.04553337 0.0076418165 -0.08609558 0.018887516 -0.05305952 -0.03542619 0.07554198 0.094572544
0.12985043 0.110922575 0.0063150036 0.14138357 0.09047868 0.14958093 -0.08261144 -0.005663052
-0.022376157 -0.13972194 0.0794716 0.1452284 0.05364706 -0.056903332 -0.2601854 -0.024441335
0.21968192 -0.07820754 0.14647558 0.13471125 -0.06867644 0.037100837 0.007991593 0.078853235
-0.1599086 -0.01140618 0.16050224 0.09429303 0.08325792 0.1455698 0.073579594 -0.002013028
0.19881627 -0.10079987 -0.13174008 0.07650696 0.02810663 0.08086041 0.0022813207 -0.098801516
0.07363453 -0.011881318 -0.065946236 -0.07197231 0.0145042725 0.07231268 0.030835737 -0.073461235
00000000: 2b49 3d3d 7edb aebd 2a9f 193d a0ac dcbb
00000010: 2f50 3abd 04dc 7d3d e7f5 18bd 4523 903d
00000020: 2289 eb3d 19f7 8cbd 04ff 0abc b027 51bd
00000030: 5d3f 8ebc 3af1 583d e4c0 0dbd 64ef dfbd
00000040: 9153 e8bc 587e 35be eb00 033e d755 cc3d
00000050: af74 813c fbf3 bbbc b53f cf3d 622d 88bd
00000060: 20c4 d9bd 06be 043e a2bf 09be 27c8 d7bd
00000070: f4d9 8dbd c12a 8b3e 5d4e 55bd 709e 143e
00000080: 74bc 5bbd b453 c73c 10f0 343e d03b 1dbc
00000090: 27ee 3fbc 0e81 b63d e859 c0bc a5bd 83bd
000000a0: 7c3c 2a3e c7ef 43bd a060 063d b95a bbbc
000000b0: cb9d aabd 0d86 af3d 9900 63be d815 06bd
000000c0: 0a27 e3bd 6e1a ef3d 1b55 583d f16c d63b
000000d0: 17be 1d3e e6e8 30bd ad3c 313e 8450 0b3b
000000e0: 5341 67bd d87c c23d a6e4 943d ab40 a23c
000000f0: 8192 d2bd d19c cfbd 97cf 9a3b c7a1 933d
00000100: c4b4 f1bd 638d 36bd 4cf4 13be 84c0 e33d
00000110: 82ab 1abd d6a2 42bc afd4 9f3d 1d56 25bd
00000120: c38f 873c d979 013e f2cd a93d 84c7 733d
00000130: eb82 b73c 4eaa f0bc 12f5 1a3c 8e8d 5fbd
00000140: f968 0f3e d32a 0f3e 5319 31be 0849 88bd
00000150: b897 a03d 8b8f a33c b1cd e4bd c8bc d03d
00000160: 47ff f93d 96b0 1bbc c667 51bc 5d77 893d
00000170: d42d e03d 36ea c53b 4aa5 0bbe 8f1e 2cbd
00000180: 6173 1f3e c5e5 37bd 7726 8f3d 8fa4 ae3d
00000190: a217 f3bd 0fc7 f93c 7fc2 643d 6126 03bd
000001a0: 4128 38be ac86 1ebe 4351 d03d c1be a43d
000001b0: 06c9 82bd 5a7e 093e cc1b 45bc 850c 0ebe
000001c0: f6c8 c13d bbfc 1cbd e251 3abc 9950 95bd
000001d0: eb24 aa3d 29cc f33d bc62 afbd 0615 b7bc
000001e0: 4adc a73b c2a7 5ebd c260 b73d 73b8 a53d
000001f0: 29b6 083b 5a29 3e3e 3508 cfbd 6cc5 5f3c
00000200: 97f1 7a3d b492 96bd f444 683d 2d64 d53d
00000210: 38b8 c03d 64ad de3d ce61 60bc 8fcf 2d3d
00000220: dacc 0c3e ce94 70be cb40 043e c750 84bd
00000230: 1fcc 43bd 5ee0 253d 4131 133e b9d0 8f3d
00000240: 3b9d de3c adca c8bc df41 9b3d c7f9 c83d
00000250: c051 b13d dddd dabd 0591 833d 402c 0ebc
00000260: 5c44 86bc 94b5 923d c498 b6bd 1756 00be
00000270: 5537 43be f9de 183e f949 563d 2fbb 0a3c
00000280: 7492 8c3d 0599 a7bc 4569 aa3d 4d33 5f3d
00000290: 7c5a f33d 4338 ba3c 7086 6ebd fbb1 8e3c
000002a0: 581b 22be 653c a73d af2e 1e38 f23a 8c3d
000002b0: cab1 a9bc 32cf 303c ca25 cdbd 6a1c 35bd
000002c0: bea7 ca3d 7ece 213e f393 a43d 5e80 333d
000002d0: 0d08 4fb9 58a8 efbd 1318 b1bd 65da 143d
000002e0: c3b7 e83c 8a50 3f3e 0e12 203d 9625 a53b
000002f0: 1fc3 143d 2882 01bd 2e80 33bd 682a e13c
00000300: 1bc2 1dbe 3709 c4bc 1ffb dfbd 1498 15bd
00000310: b357 c9bd 29cc e43b 416d fcbb 6afd ddbd
00000320: 3381 3abd 3468 fa3b e152 b0bd feb9 9a3c
00000330: f054 59bd 0d1b 11bd c1b5 9a3d 40af c13d
00000340: 83f7 043e 602b e33d 17ee ce3b dbc6 103e
00000350: e34c b93d be2b 193e 3030 a9bd 2091 b9bb
00000360: 344e b7bc 4513 0fbe 02c2 a23d c1b6 143e
00000370: 05bd 5b3d 7813 69bd 0537 85be 3239 c8bc
00000380: 4cf4 603e 462b a0bd b2fd 153e bff1 093e
00000390: 3ca6 8cbd 0cf7 173d 2cef 023c ce7d a13d
000003a0: 14bf 23be fde0 3abc b35a 243e b41c c13d
000003b0: 2183 aa3d 4010 153e e6b0 963d 01ed 03bb
000003c0: 7e96 4b3e 2a70 cebd dfe6 06be aeaf 9c3d
000003d0: e03f e63c 259a a53d 3682 153b 7358 cabd
000003e0: b3cd 963d dca9 42bc d20e 87bd 3866 93bd
000003f0: 54a3 6d3c ac18 943d 3a9b fc3c d872 96bd

bias f4 [256]
0.05500053 0.041089516 0.00265536 0.10302749 0.1377541 -0.030697333 0.0990536 0.08985971
0.033875093 0.053248458 0.09488835 -0.01396625 0.07211918 -0.049226005 0.018487744 0.113034174
0.0017438947 0.16209754 -0.019750657 0.055519868 0.10276628 0.007524455 0.042994108 0.025324406
0.028998468 0.082724564 0.027140517 -0.10981066 0.020031882 0.007626284 0.06736161 0.035788942
0.027918143 -0.089841895 0.055867475 -0.01692145 -0.05627923 0.04209484 -0.03860369 0.04526431
-0.058388926 -0.04779267 0.09282899 0.013421213 -0.032567937 0.011472678 0.14943598 0.114527375
-0.085733905 0.07342366 0.16211589 -0.04221873 0.09125548 -0.001949083 0.08888803 -0.05338427
-0.113002315 0.18574503 0.12146491 0.13402721 0.05324547 0.10613272 0.026927037 0.13348103
-0.039517067 -0.03668548 -0.027678179 -0.07176477 -0.043873932 0.017493244 0.014031154 0.0011170214
0.010003814 0.03783202 -0.04721819 0.07881724 -0.051906504 -0.03624897 0.075111866 -0.02264719
-0.043306526 0.034185704 0.0572444 -0.069821626 -0.018301174 0.043375593 -0.062925614 -0.047276232
0.06261477 -0.09538598 0.05302221 0.12790819 0.009127381 0.06908911 0.0008725706 -0.03358287
-0.015575412 0.06562235 0.02608911 0.110380344 0.09037061 0.10677382 -0.06545512 -0.06885982
0.05442113 0.05315467 0.07579191 0.07231906 -0.03952774 0.007241185 0.021952966 0.070817806
0.07597687 0.033066764 0.07071284 -0.109434396 0.0907184 -0.0023845895 -0.08728309 -0.003456667
0.04046177 0.110854246 0.05445748 -0.04715765 -0.004271118 -0.04263339 0.022196691 -0.0056915293
0.10881807 0.07101379 0.037785582 0.072311 -0.050027404 -0.00044640826 -0.030567357 -0.10058194
-0.046924915 0.07692108 0.0044681053 0.119013645 -0.02551362 0.06123577 0.014445219 0.10381425
0.09629764 -0.0677094 0.13354534 0.036600016 -0.004978821 0.1042884 -0.04188552 -0.03468265
0.008742939 0.068329744 0.014090132 0.054640766 -0.0040434278 0.031594083 0.06787009 0.16241784
0.07722864 0.06168144 0.04834233 0.04100596 0.05960501 -0.075687125 -0.032742716 0.028347194
0.01342545 0.04284352 -0.0023259753 -0.07688551 0.0130881965 -0.112460226 -0.063085094 0.11936878
-0.0796572 -0.12830243 -0.056702256 0.14810146 0.12798417 0.051808074 0.049842637 0.028338036
-0.010162338 0.08994358 0.09335182 0.07655519 0.08861977 -0.08487313 0.103535876 -0.028002277
-0.022034945 -0.06747669 0.069741294 -0.024908774 -0.10330621 0.00095440424 0.066921175 0.09360377
-0.030900693 0.05864362 -0.04647347 -0.02633521 0.12270979 -0.017114852 0.037100133 0.021472761
0.05279557 0.13785745 0.09078037 0.07113083 -0.03809046 0.054423537 0.06999356 0.079650246
0.056022093 0.02392584 0.04369076 0.0071876626 -0.05259219 -0.08475282 0.06621776 -0.100941904
0.10298801 -0.07224345 -0.058033604 0.125975 0.018779306 -0.019044226 0.0997374 -0.038788818
0.0019498724 -0.024985988 0.12839814 -0.0469567 0.051316734 0.08129924 -0.032280505 -0.0020151152
-0.01971224 -0.06399183 -0.069011495 0.040234227 0.0019121136 0.03833908 0.0652974 -0.019876705
0.067616306 -0.069735125 -0.0039792066 -0.038480062 0.05527722 0.008020783 0.024681216 0.12962347
00000000: 3c48 613d 7b4d 283d 8c05 2e3b 1400 d33d
00000010: 690f 0d3e f978 fbbc 9ddc ca3d 5e08 b83d
00000020: 9cc0 0a3d 0e1b 5a3d d354 c23d b3d2 64bc
00000030: 38b3 933d 35a1 49bd 9c73 973c 767e e73d
00000040: 6593 e43a e6fc 253e 21cc a1bc cd68 633d
00000050: 2177 d23d b48f f63b 971a 303d 2175 cf3c
00000060: 328e ed3c 7f6b a93d ca55 de3c 69e4 e0bd
00000070: e719 a43c e8e5 f93b e2f4 893d 6d97 123d
00000080: 97b4 e43c 07ff b7bd 4bd5 643d da9e 8abc
00000090: 0d85 66bd a46b 2c3d e71e 1ebd 1267 393d
000000a0: 3a29 6fbd 3fc2 43bd 201d be3d a6e4 5b3c
000000b0: f565 05bd e6f7 3b3c bf05 193e 548d ea3d
000000c0: 4295 afbd 255f 963d b501 263e 8ced 2cbd
000000d0: 27e4 ba3d 5f78 ffba ed0a b63d 77a9 5abd
000000e0: c26d e7bd f233 3e3e 98c2 f83d 6e3e 093e
000000f0: ec17 5a3d 1d5c d93d 1796 dc3c 40af 083e
00000100: a6dc 21bd 8443 16bd 59bd e2bc 68f9 92bd
00000110: 27b5 33bd fe4d 8f3c ede2 653c 0569 923a
00000120: 09e7 233c c0f5 1a3d dc67 41bd ef6a a13d
00000130: ea9b 54bd cd79 14bd 40d4 993d 9a86 b9bc
00000140: 2f62 31bd 4f06 0c3d 1b79 6a3d a4fe 8ebd
00000150: 58ec 95bc 9baa 313d 25df 80bd b9a4 41bd
00000160: 2c3c 803d ba59 c3bd d12d 593d 5dfa 023e
00000170: 038b 153c 977e 8d3d 39bd 643a 318e 09bd
00000180: 0330 7fbc 0365 863d d4b8 d53c 170f e23d
00000190: 3a14 b93d 3cac da3d 550d 86bd 6106 8dbd
000001a0: b1e8 5e3d b6b8 593d ca38 9b3d 041c 943d
000001b0: d7e7 21bd 7647 ed3b b5d6 b33c ed08 913d
000001c0: c399 9b3d 0471 073d e5d1 903d 241f e0bd
000001d0: 92ca b93d c646 1cbb 7ac1 b2bd 4089 62bb
000001e0: 3ebb 253d 8d07 e33d ce0e 5f3d 6128 41bd
000001f0: bcf4 8bbb 59a0 2ebd d6d5 b53c 0280 babb
00000200: 02dc de3d ae6f 913d 0ec5 1a3d ca17 943d
00000210: 89e9 4cbd e70b eab9 6568 fabc e7fd cdbd
00000220: 5734 40bd cd88 9d3d 2f69 923b 6dbd f33d
00000230: f001 d1bc 5cd2 7a3d a4ab 6c3c 919c d43d
00000240: b237 c53d 3aab 8abd 1cc0 083e e6e9 153d
00000250: 6125 a3bb 2895 d53d 2790 2bbd 650f 0ebd
00000260: 8b3e 0f3c 77f0 8b3d 4cda 663c ffce 5f3d
00000270: bb7e 84bb cc68 013d 79ff 8a3d dd50 263e
00000280: 0d2a 9e3d ada5 7c3d 9b02 463d def5 273d
00000290: 6224 743d da01 9bbd 3a1d 06bd 6038 e83c
000002a0: 6bf6 5b3c b07c 2f3d 646f 18bb 2676 9dbd
000002b0: e06f 563c 8c51 e6bd c232 81bd 9e77 f43d
000002c0: 5023 a3bd b661 03be a040 68bd e9a7 173e
000002d0: 480e 033e b434 543d cb27 4c3d 2b25 e83c
000002e0: ef7f 26bc 5734 b83d 3d2f bf3d f8c8 9c3d
000002f0: 487e b53d f7d1 adbd 9e0a d43d 0865 e5bc
00000300: a182 b4bc 3831 8abd 86d4 8e3d 7c0d ccbc
00000310: 3592 d3bd fc30 7a3a f80d 893d 55b3 bf3d
00000320: 7323 fdbc 4b34 703d f75a 3ebd f0bc d7bc
00000330: 454f fb3d 7234 8cbc 4ff6 173d a5e7 af3c
00000340: 2b40 583d 812a 0d3e 0feb b93d 0aad 913d
00000350: be04 1cbd 37eb 5e3d c958 8f3d ab1f a33d
00000360: 6c77 653d 2000 c43c 15f5 323d 7c86 eb3b
00000370: e96a 57bd e392 adbd 2d9d 873d a1ba cebd
00000380: 61eb d23d 60f4 93bd a5b4 6dbd 97ff 003e
00000390: 0fd7 993c a302 9cbc 1f43 cc3d 06e1 1ebd
000003a0: dc92 ff3a 6aaf ccbc cd7a 033e ab55 40bd
000003b0: 7f31 523d 3780 a63d 9038 04bd 0610 04bb
000003c0: 907b a1bc 260e 83bd e655 8dbd a5cc 243d
000003d0: e39f fa3a 7009 1d3d a5ba 853d 79d4 a2bc
000003e0: 6b7a 8a3d 4ad1 8ebd 0164 82bb 459d 1dbd
000003f0: 5e6a 623d 9a69 033c 4330 ca3c 04bc 043e

weight f4 [10, 256]
-0.16427055 0.008532051 0.0027836282 -0.18944721 -0.1785455 -0.043254547 -0.15070911 -0.09530278
-0.11885109 0.043922156 -0.22404967 -0.14883807 0.060434155 -0.04447583 -0.02968518 0.10444638
0.03948545 -0.16854788 0.1009399 0.026507013 0.016159492 -0.12880526 0.08342906 -0.15851343
-0.12513572 0.06454717 0.09731933 -0.16719164 -0.25629598 0.0163364 -0.059181124 -0.088958174
0.075268015 -0.014585623 -0.16941556 -0.16652793 0.06753208 0.08587068 0.060765788 0.068009324
0.049597453 -0.026985295 -0.16528708 0.057512656 0.061196234 -0.013038006 0.068100564 0.083937675
0.040075757 -0.09452019 0.09893077 -0.04849615 -0.11970965 -0.025010519 0.14265329 -0.022291098
0.059087027 -0.05256608 0.050255693 -0.12700374 -0.015785875 -0.090184115 0.0045661647 -0.02817138
0.030434337 0.21086435 -0.090184465 0.09926662 0.08644776 0.069927536 0.11070345 0.09799599
-0.21782361 -0.1393496 0.097227246 0.10107911 -0.21314107 0.00836858 0.09673499 -0.02685133
-0.11975313 0.051357135 -0.0144421635 -0.04752322 -0.006134439 0.07521692 0.042146757 -0.1418306
-0.2390316 0.03548866 -0.056590766 0.111298114 0.060016293 0.112358116 -0.21141826 -0.21138945
0.07242649 0.109677546 0.09916681 0.096721835 -0.12629767 0.07232289 0.0025711942 0.08299388
-0.16077319 -0.20191021 0.05010313 0.14172035 0.05772848 -0.002154232 -0.09816125 0.03826797
0.047949597 0.06680031 0.043111052 -0.21551077 0.019864034 0.028702594 -0.11579562 0.11107808
-0.18071744 0.016817149 -0.19826362 -0.11261818 -0.120260336 0.035645895 0.049178045 0.01710106
0.06849334 0.12891442 -0.17165549 -0.1927774 0.059978347 -0.15685803 0.08571265 -0.04614111
0.06637881 -0.003218659 -0.020869238 -0.040854678 -0.16575424 -0.074876726 -0.051183492 0.10575779
0.03840431 0.027129166 0.04494702 0.09325305 0.08977138 -0.031357486 0.026591035 0.009285071
-0.056162354 0.05544017 0.031442914 -0.06358245 0.05663092 0.022526221 0.04090407 -0.04392117
0.12125192 0.036174126 0.12079671 0.076147445 0.06603972 0.037703052 -0.03748502 1.9917858e-05
-0.012758789 -0.14347146 -0.048047844 -0.13971107 0.03484111 0.0187492 -0.10343924 0.12646519
0.10323557 -0.011305517 -0.16415192 0.09433994 0.078925766 0.043206777 -0.055842876 0.101109385
0.03162291 -0.092058346 -0.12988967 0.0025494765 0.11527112 0.00921209 -0.12178064 0.052657314
0.0023281423 0.04997027 -0.19697152 -0.1549803 -0.058573086 0.09904124 -0.030832915 -0.14089435
0.07330436 -0.13837418 -0.043809637 -0.14875779 0.06011714 -0.096322484 0.03783043 -0.15930985
-0.18095182 -0.2164669 -0.19085382 -0.053309426 -0.17424133 0.022615548 -0.05038001 0.102562316
0.12690443 -0.02469662 0.06757306 -0.031436026 -0.109537184 -0.12753768 0.0989785 0.066277094
-0.18744355 -0.21718617 0.03650516 -0.046309017 0.06782969 0.07264064 -0.16476029 -0.07926707
-0.0051813903 0.061519668 -0.11550391 -0.089990005 -0.19909623 -0.1033932 -0.12842453 -0.12037762
-0.0882801 -0.044922344 0.008522988 0.069869086 -0.078768775 -0.08534059 0.047794245 0.07592965
-0.11421665 -0.03968046 -0.14558944 0.22546059 -0.050429292 0.010371251 -0.083196715 -0.16433178
00000000: 8a36 28be 04ca 0b3c 886d 363b 73fe 41be
00000010: a2d4 36be ae2b 31bd 7d53 1abe 1b2e c3bd
00000020: 3368 f3bd b8e7 333d 476d 65be 0269 18be
00000030: ce89 773d 4a2c 36bd 562e f3bc fce7 d53d
00000040: 7fbb 213d d197 2cbe 94b9 ce3d 3c25 d93c
00000050: e960 843c 87e5 03be dbdc aa3d 5851 22be
00000060: 9423 00be 4f31 843d 5b4f c73d 4934 2bbe
00000070: 3a39 83be ead3 853c e867 72bd b42f b6bd
00000080: 1e26 9a3d 89f8 6ebc 467b 2dbe 4c86 2abe
00000090: 424e 8a3d f8dc af3d 8ce5 783d 7948 8b3d
000000a0: b326 4b3d 4410 ddbc 0441 29be 6492 6b3d
000000b0: e7a8 7a3d 5c9d 55bc 4f78 8b3d 84e7 ab3d
000000c0: 7a26 243d cd93 c1bd 379c ca3d e6a3 46bd
000000d0: 552a f5bd dce2 ccbc b413 123e d29b b6bc
000000e0: 3d05 723d 884f 57bd ead8 4d3d 450d 02be
000000f0: 6151 81bc 73b2 b8bd c49f 953b aac7 e6bc
00000100: 6e51 f93c d3ec 573e a2b2 b8bd 4c4c cb3d
00000110: 860b b13d 2b36 8f3d 7eb8 e23d 1fb2 c83d
00000120: 270d 5fbe a9b1 0ebe 141f c73d 9002 cf3d
00000130: a741 5abe 5e1c 093c ff1c c63d 52f7 dbbc
00000140: 2141 f5bd dc5b 523d d39e 6cbc b5a7 42bd
00000150: 6703 c9bb 540b 9a3d 14a2 2c3d 0a3c 11be
00000160: b3c4 74be 8f5c 113d b8cb 67bd 44f0 e33d
00000170: a5d3 753d 031c e63d 077e 58be 7a76 58be
00000180: 5754 943d 9f9e e03d f817 cb3d 1916 c63d
00000190: 2d54 01be 061e 943d 7b81 283b b2f8 a93d
000001a0: baa1 24be 8dc1 4ebe f138 4d3d 241f 113e
000001b0: b374 6c3d 042e 0dbb c408 c9bd e0be 1c3d
000001c0: cc66 443d 9ace 883d 3795 303d dbae 5cbe
000001d0: e6b9 a23c b421 eb3c 4126 edbd e87c e33d
000001e0: fe0d 39be 1ec4 893c 9e05 4bbe 5ca4 e6bd
000001f0: 0d4b f6bd 6e01 123d eb6e 493d 8617 8c3c
00000200: 3c46 8c3d 2402 043e 75c6 2fbe 7067 45be
00000210: dbab 753d 649f 20be 1d8a af3d 76fe 3cbd
00000220: 9df1 873d 23f0 52bb f7f5 aabc 3c57 27bd
00000230: 7bbb 29be f858 99bd c8a5 51bd 8a97 d83d
00000240: d64d 1d3d fc3d de3c 5e1a 383d 75fb be3d
00000250: 0fda b73d b570 00bd 71d5 d93c 6920 183c
00000260: 7f0a 66bd 3b15 633d 49ca 003d 8437 82bd
00000270: d3f5 673d e988 b83c 078b 273d afe6 33bd
00000280: ed52 f83d 522b 143d 4464 f73d 31f3 9b3d
00000290: d53f 873d 846e 1a3d e489 19bd 4615 a737
000002a0: 3d0a 51bc 2fea 12be d1cd 44bd 6b10 0fbe
000002b0: 8db5 0e3d ec97 993c f4d7 d3bd 1780 013e
000002c0: 2c6d d33d c63a 39bc 7117 28be 4c35 c13d
000002d0: d5a3 a13d 97f9 303d 80bb 64bd 7012 cf3d
000002e0: 0687 013d 1689 bcbd cc01 05be 1e15 273b
000002f0: 4413 ec3d 4eee 163c 2168 f9bd 32af 573d
00000300: bf93 183b a0ad 4c3d e7b2 49be 28b3 1ebe
00000310: 55ea 6fbd 22d6 ca3d 4f95 fcbc 9c46 10be
00000320: 9920 963d f6b1 0dbe bc71 33bd f653 18be
00000330: 643d 763d b944 c5bd 15f4 1a3d 1f22 23be
00000340: 6f4b 39be 80a9 5dbe 2f6f 43be fc5a 5abd
00000350: 526c 32be 3e44 b93c 455b 4ebd 310c d23d
00000360: 3cf3 013e 9150 cabc bf63 8a3d 10c3 00bd
00000370: 0855 e0bd 3d99 02be 3db5 ca3d 49bc 873d
00000380: 34f1 3fbe 0d66 5ebe 6f86 153d 86ae 3dbd
00000390: 4bea 8a3d 9ec4 943d ecb6 28be c656 a2bd
000003a0: a7c8 a9bb 0cfc 7b3d 508d ecbd ae4c b8bd
000003b0: e2df 4bbe d0bf d3bd b881 03be 8b88 f6bd
000003c0: 32cc b4bd 7e00 38bd 01a4 0b3c 8617 8f3d
000003d0: 8651 a1bd 0cc7 aebd e6c3 433d 0181 9b3d
000003e0: 6bea e9bd fa87 22bd 6615 15be 24df 663e
000003f0: f28e 4ebd 2eec 293c 0a63 aabd 9746 28be

bias f4 [10]
0.07016831 0.12067378 0.03271651 -0.07029249 -0.017596506 0.014162072 0.007565185 -0.038365465
-0.067757234 0.0553091
00000000: 67b4 8f3d d123 f73d bf01 063d 82f5 8fbd
00000010: 8c26 90bc 0908 683c 5fe5 f73b 1b25 1dbd
00000020: 4ec4 8abd cb8b 623d
