第一题/fc_mnist.pth (torch, 548754 bytes, 6 tensors)

weight f4 [128, 784]
000000 a2 77 e2 3c 80 64 a8 bb 98 dd be 3b 4e 1b af bc
       0.027644936 -0.0051389337 0.005824756 -0.021375325
000010 dc 08 0b 3c 98 ea 03 3c 75 08 85 bc 26 37 f0 3c
       0.008485999 0.008051537 -0.016239384 0.029323172
000020 a8 15 71 3c 88 78 b0 3b 9a 13 c7 bc e0 35 9e 3c
       0.014714636 0.005385462 -0.024301339 0.019312799
000030 b2 ba c3 3c da d3 96 3c 06 15 c3 3c 88 05 07 3c
       0.023892734 0.018411566 0.023813736 0.008241065
000040 19 c5 11 3d a6 6b 0d bd 38 35 9c 3b 66 a2 5e bc
       0.035588358 -0.03452649 0.0047670864 -0.0135885235
000050 73 71 dc bc 06 a1 62 bc 08 ce b1 bc 9d 2c 07 3d
       -0.026909566 -0.013832336 -0.021704689 0.03300153
000060 97 f9 0b bd e6 72 7d bc ae f3 24 bc 64 bd 79 3c
       -0.034173574 -0.015469288 -0.010067863 0.015242908
000070 60 bd aa 3a e5 36 d1 bc 1c b8 cb bb 3e 5a e8 3c
       0.0013026409 -0.025538871 -0.006217016 0.028363343
000080 f0 6f ec 3b 68 b6 dc 3d a0 93 8f 3d b9 1f 43 3d
       0.0072154924 0.10776979 0.07010579 0.047637675
000090 27 a0 af 3d 01 b5 86 3d 50 78 28 3d a5 ff b7 bd
       0.085754685 0.065774925 0.041130364 -0.08984307
0000a0 f4 51 ce 3c 00 24 1a 3d 7d 9b ac 3d 21 e4 cb 3d
       0.025185563 0.03763199 0.084280945 0.099556215
0000b0 95 c8 40 3c e7 a6 59 bd 88 fb 8a bd d5 bd d8 bc
       0.0117665725 -0.053137686 -0.06786257 -0.026457706
0000c0 92 21 12 3d 3c 16 5d bc 40 1b 69 3a fa 7a bc bc
       0.035676546 -0.013494071 0.0008892305 -0.023007859
0000d0 08 63 71 3c cc ad 8c 3c 70 cf c8 bc 1a 82 fa 3c
       0.014733084 0.017172717 -0.024512976 0.030579615
0000e0 15 98 0d 3d e6 ce 46 bc d8 60 5d bc 70 20 c4 bc
       0.034568865 -0.012134289 -0.013511859 -0.023941249
0000f0 c4 92 05 bd 28 a6 56 3d 3b f6 e1 3d 1b e4 44 3d
       -0.03261067 0.052404553 0.11033293 0.0480691
000100 f1 25 94 bb 25 9a c5 3d 8c 9d 0d 3e 40 67 1e 3d
       -0.0045211245 0.09648541 0.1382963 0.038672686
000110 24 7a a6 3d df 6f 01 3e b9 54 35 3d 3e 72 29 bc
       0.08128765 0.12640332 0.04427025 -0.010342179
000120 2c ef af 3d c6 c2 98 3c af 82 0b 3c 01 5f e8 3c
       0.0859054 0.018647563 0.008515044 0.028365614
000130 52 57 83 bd aa 07 8a bc ae 4c c8 bd 4c fe ef 3b
       -0.064131394 -0.016849358 -0.097802505 0.0073240157
000140 aa 13 e8 bc 7a 54 8d 3c 5c 43 06 3c 30 ca 6a bb
       -0.028329689 0.017252196 0.008194771 -0.003582608
000150 a0 8f 40 bb 0d 8c 06 bd 10 29 a8 3b 63 5f d1 bc
       -0.0029382482 -0.032848407 0.005131848 -0.02555818
000160 8e 29 cc 3b 27 f0 36 3d 2b 7a 85 3d 9b ee 00 bd
       0.0062305396 0.04466262 0.06517442 -0.031477552
000170 db ce 23 bc bc 71 88 3c ac 13 eb 3c 79 fd 66 3c
       -0.009998049 0.016655795 0.028695904 0.0140985185
000180 36 64 87 3d 1a 73 96 3d b8 07 be 3c 21 81 45 3d
       0.066109106 0.07346173 0.02319704 0.04821885
000190 3f b7 57 bc 88 cc 85 bd 2a c9 92 bd ae ba c9 bd
       -0.013166248 -0.06533152 -0.07167275 -0.098500594
0001a0 72 40 38 bd 23 e6 d0 3c ac 0b a3 3d 88 f7 53 3d
       -0.044983335 0.025500363 0.079612106 0.051749736
0001b0 04 2d 04 3e 48 4b ba bc bc 43 ec 3c 32 a3 00 bc
       0.12907797 -0.022740975 0.028840892 -0.007851409
0001c0 07 20 0a 3d 08 3c 8c bb 24 19 4f 3c ef 1d d5 bb
       0.03372195 -0.004279617 0.012640271 -0.0065038125
0001d0 34 6e eb bb 7b e4 56 bc 5f 15 5f 3d 66 50 0e 3e
       -0.007184768 -0.013115997 0.05446374 0.13897857
0001e0 cb 49 5f 3d 95 a3 81 3d a7 99 54 3e 4f 5c e7 3d
       0.054513734 0.06330029 0.20761739 0.11296903
0001f0 b0 f8 ec 3d 34 9d 8e 3d 06 47 fb 3c 95 6c 0c bc
       0.11570871 0.06963578 0.030673515 -0.00857081
000200 ac 9f 86 bb b2 78 7d 3d b4 7a 29 3b ce 57 3a 3d
       -0.00410839 0.061882682 0.002586049 0.045493893
000210 dd 38 2a bd 7f 4c 90 bc 37 76 1a be 5b 47 b4 bd
       -0.041558135 -0.017614601 -0.15084158 -0.088026725
000220 78 58 05 3e a4 73 95 3d fa be 95 bd 12 2e f7 3c
       0.1302203 0.07297447 -0.073118165 0.030173335
000230 10 ad 4a bb 7a be ff bb 2d e5 13 bc da 2b 60 3b
       -0.0030925907 -0.007804689 -0.009026808 0.0034205825
000240 f2 14 9a bd 17 a4 be bd 56 0c d5 3d 99 2c a4 3d
       -0.07523526 -0.093086414 0.104027435 0.08016319
000250 f3 be 4f 3d a1 88 aa bb d3 ef 26 bb b2 91 18 bd
       0.050719213 -0.0052042757 -0.0025472536 -0.03724832
000260 cf 95 ea 3b 5e af 84 3d 31 9e ac 3b 36 44 1a 3d
       0.007158972 0.06478761 0.0052678813 0.037662707
000270 83 a4 39 3d 71 8e 4e 3d b3 fa 0d 3d aa ec c1 3b
       0.045322906 0.05042881 0.034662914 0.005918105
000280 0d ee 7d 3d 9a 04 b7 3c 8d 4e 76 ba ae 9a 0f be
       0.0619946 0.022341061 -0.000939586 -0.1402385
000290 35 1e ba bd 4a aa bb 3b 57 ab 0d bd 70 df cb 3b
       -0.09087793 0.005727087 -0.03458723 0.006221704
0002a0 c6 82 e4 3c a4 1f 64 3c 54 09 9e bd e0 f8 d6 bd
       0.027894389 0.013923559 -0.07716623 -0.10496688
0002b0 2e 6d 2a 3d d6 95 93 3d b9 ec 8e 3d ef c3 52 3d
       0.041608028 0.07206313 0.06978745 0.051456388
0002c0 4a 54 c9 3c 5a a6 56 bd dc 0d df bc 89 8e 26 bd
       0.024576325 -0.05240474 -0.027228288 -0.040663276
0002d0 96 55 87 bd 2d 20 39 3d db e3 11 3d d7 f7 a6 3d
       -0.06608121 0.0451967 0.03561769 0.081527404
0002e0 de 7e 8f 3d 83 34 3c 3c 2f af 82 3d 8c c7 ff 3c
       0.0700662 0.011487129 0.0638107 0.031223081
0002f0 76 d6 00 3d 49 f2 ed bc c0 a2 18 3d e7 45 2b bd
       0.031454526 -0.029046195 0.037264585 -0.04181471
000300 4e 36 10 3d 84 14 1c 3d ac d7 bc bd 46 4e b2 bd
       0.03520804 0.038105503 -0.09220824 -0.08706336
000310 cf e1 04 3d f3 3f 02 3d 8d bd b6 bd 19 0b 46 bd
       0.03244191 0.031799268 -0.08922873 -0.048350427
000320 e5 7d 20 3e db bf e1 3d 71 f4 84 bc b4 73 29 bd
       0.15673025 0.11022922 -0.01622984 -0.04137011
000330 55 6e a5 3c bb 89 5f bd 47 91 15 bc 8d d4 56 bd
       0.020194212 -0.05457471 -0.009128875 -0.052448798
000340 55 6d 61 bd aa f4 da bc 33 8b 92 bc e0 db a1 3d
       -0.055035908 -0.026727993 -0.017888641 0.07903266
000350 62 96 d9 3c 63 5e 8b 3b f6 2b d7 3b 2e ed 80 3d
       0.026560966 0.004253195 0.00656652 0.062952384
000360 db 09 28 3c 65 ab f9 3c 34 6c de 3c 7f 7c a5 bd
       0.010256256 0.030477235 0.027151205 -0.08080386
000370 82 3e 15 be 5a 4c 49 bd b1 f8 05 be b4 04 6e 3c
       -0.14574626 -0.04914508 -0.1308315 0.0145274885
000380 b6 98 9e 3c 86 0c 9d 3a 1b 96 02 bc 9e 55 59 bd
       0.019359928 0.0011981882 -0.007970358 -0.053060167
000390 9a 29 49 3d 17 ab 54 3d 86 4d 02 3d 82 80 10 bd
       0.04911194 0.051920976 0.031812213 -0.035278805
0003a0 bd f0 96 3b a9 6c 3d bd b6 55 3e ba 87 91 dd 3b
       0.004606335 -0.046246205 -0.0007260697 0.006761733
0003b0 98 b9 69 bd ed 14 0b bd 16 5f 28 3d d3 8e c6 3d
       -0.05706176 -0.033955503 0.041106306 0.0969521
0003c0 32 cb b9 3d f4 b6 17 3d d6 f9 b2 3d 8e e9 2a 3d
       0.090719596 0.037039712 0.08739059 0.04172664
0003d0 d5 0f a9 3b b3 45 ab 38 7d 11 04 bc 7c e3 86 bc
       0.005159358 8.166898e-05 -0.00806081 -0.016465895
0003e0 eb f5 48 bd 99 2f 64 bd 8b 47 3d be d2 6a 81 bd
       -0.04906265 -0.055709455 -0.18484323 -0.063192025
0003f0 aa 54 27 bc 99 07 ac bd 99 29 84 bc 47 ad 8b bb
       -0.010213057 -0.08399887 -0.016133117 -0.0042625996

bias f4 [128]
000000 37 f2 fd bc ae 2d 4d bd 30 d9 14 3c 95 13 72 3c
       -0.030999286 -0.05009239 0.009084985 0.0147751765
000010 c0 5d 85 bb 13 79 b8 bc fa 0c ed bd 3f 97 22 3d
       -0.0040700138 -0.02251867 -0.11574741 0.03969502
000020 ac 4c 58 3d 5d c4 9f bd 8f 47 75 3d 17 84 b2 3d
       0.052807495 -0.07801125 0.059882697 0.087166004
000030 b8 a7 52 3d 9a ab c2 3d 28 30 80 3d ae 55 9c bd
       0.05142948 0.09505387 0.06259185 -0.076335296
000040 60 9a 90 3d 18 17 76 3c 95 1f 71 3d ae ad 8a bb
       0.07060695 0.015020154 0.05886801 -0.00423213
000050 28 0d cc 3c e0 50 9c 3d 5b f4 ba bc db 51 af 3c
       0.024908617 0.07632613 -0.022821596 0.021401336
000060 56 1f ad 3d 99 75 8a 3c fc 99 c1 3d 55 39 15 3d
       0.084532425 0.016901778 0.09453198 0.03643163
000070 e1 fe 20 3d 64 5a fc 3c 71 85 a7 bd 2e cb 83 3d
       0.03930557 0.03080482 -0.08179749 0.06435238
000080 20 23 16 3d 34 5a eb 3d 3f 7a 9b 3c a3 35 09 3d
       0.03665459 0.11491814 0.01897919 0.033498418
000090 b0 0d a7 3d da e8 d1 3c 6a a6 35 bc ca 55 cb 3b
       0.081569076 0.025623728 -0.0110870395 0.006205295
0000a0 13 b4 8a 3c d0 8b 16 bd 0a dc e0 3c a8 68 48 3d
       0.01693157 -0.03675443 0.027448673 0.048927933
0000b0 83 f4 df bb 98 e0 7c 3d 1e 7d 82 3d 5f b3 34 3c
       -0.006834568 0.061737627 0.063715205 0.0110290935
0000c0 a2 0d 44 bc 79 da d2 3c 8c 3e 1d 3d bf d0 7e 3d
       -0.011966141 0.025738942 0.038389727 0.062210795
0000d0 9f 83 52 3d 84 aa b3 3d 28 7c 5d bd 47 15 3e 3d
       0.051395055 0.08772758 -0.054073483 0.04640701
0000e0 15 ac 1b 3d 3f f1 f0 3d cb eb 1e bd 31 f2 9f bc
       0.038005907 0.11764764 -0.03879909 -0.019524666
0000f0 a6 8d 12 3c 6e 89 27 bc 84 21 14 3d 93 96 82 3c
       0.008944904 -0.010225637 0.036164775 0.01594094
000100 40 61 3e 3c 9d f9 0f 3d 43 37 d2 bc 94 4f 93 3c
       0.011619866 0.03515016 -0.025661116 0.017982282
000110 35 1a ee 3d 5f 0e f2 3d a1 5c 72 3d a5 f9 22 bd
       0.11626092 0.11819147 0.05917037 -0.03978886
000120 78 c7 24 bd 56 dd 17 bc 52 73 70 bd dd 52 40 3d
       -0.04022929 -0.009269079 -0.058703728 0.046954025
000130 19 5e 53 bd fe 9d 8d b9 94 e4 84 bc 47 08 c4 bd
       -0.05160341 -0.0002701133 -0.016222276 -0.09571891
000140 c2 39 09 3e b0 33 a6 bd ab 70 d9 3c f3 df 3d 3a
       0.13400939 -0.08115327 0.026542982 0.0007243149
000150 1a 78 9a 3c 76 24 ff 39 6e 96 ac 3b 87 08 00 bd
       0.018856097 0.00048664556 0.005266956 -0.031258132
000160 d4 e6 6f 3d 62 b3 17 bd 28 87 a8 3b 25 a8 7b bd
       0.058569744 -0.037036307 0.005143065 -0.061439652
000170 7e 06 dd bc a2 a7 66 3c c7 e0 29 3d be 79 3c 3d
       -0.026980635 0.014078053 0.04147413 0.04601454
000180 e0 14 4f bd 29 2a 13 bd e1 4f 5d 3d b6 b8 ca 3d
       -0.050557017 -0.03592888 0.054031257 0.09898512
000190 cc 73 3b 3d c3 4b aa 3c 1c a8 00 bd b2 58 fb 3c
       0.04576473 0.02078808 -0.03141032 0.030681942
0001a0 47 54 80 3c e3 cf 90 3d 9e 33 88 3d 0a f0 d3 3c
       0.015665187 0.07070901 0.0665047 0.025871295
0001b0 a3 38 8f 3c 72 78 69 3d a1 a4 20 bc 10 e1 61 3c
       0.017483061 0.05699963 -0.009804876 0.013786569
0001c0 2a d6 99 3d 19 a6 fb bc c9 f8 4c 3d ef 3e 4b bd
       0.07511552 -0.03071885 0.050041948 -0.049620565
0001d0 6d 31 37 bc e8 0f 32 3d 41 58 1d 3d 32 38 ad 3a
       -0.011181218 0.0434722 0.038414244 0.00132156
0001e0 84 f6 25 bd bb 26 69 bd c2 70 ce 3d 5a f8 0c bc
       -0.0405183 -0.056921702 0.100801006 -0.0086041335
0001f0 5e 73 2b bc 8f 25 35 3c 66 3b fc 3a 19 35 f3 3b
       -0.010464517 0.011056318 0.0019243776 0.007422101

weight f4 [256, 128]
000000 72 be 9f 3d 98 61 35 3d db cd 25 bc 10 2f e2 bd
       0.077999964 0.044282526 -0.010119881 -0.11044133
000010 36 5f 70 3d 14 70 96 3d 8d 82 4d 3e 23 f4 1b bd
       0.05868455 0.07345596 0.20069332 -0.038074624
000020 80 ef ad 3b 5f 30 db 3c af dd c9 bd 7c 19 ed bc
       0.0053080916 0.026756464 -0.09856736 -0.028942816
000030 45 f2 fc 3a 13 bc 94 bd fb 54 67 be b9 28 05 3e
       0.0019298276 -0.07262435 -0.22591011 0.13003816
000040 a6 6f 2d bd b1 57 a4 bc 62 c5 8c bd 73 5a 0d 3e
       -0.042342804 -0.020061346 -0.06873585 0.13804035
000050 bb df be 3d 9a ce ad bd 68 e8 a5 3d 42 12 da 3c
       0.09320017 -0.08486672 0.081009686 0.026620034
000060 81 2e 39 bb c8 49 ab 3d 6b 55 83 bc c3 84 a8 3b
       -0.0028256478 0.08363682 -0.016031941 0.0051427796
000070 d7 8b 17 3c 1c 06 d5 3d 79 c0 15 3e ec a0 7d 3d
       0.009249649 0.10401556 0.14624204 0.061921045
000080 bf 11 d2 3d 56 ab 8a bd 23 e0 c7 3c dd 83 e7 bb
       0.10257291 -0.06770961 0.024398869 -0.00706528
000090 4d b4 ac bc 89 ef 8e bd 36 68 c4 3d 81 0f d5 3d
       -0.021082068 -0.069792815 0.09590189 0.10403348
0000a0 cb 08 d7 bc 4e 92 b4 3d 99 18 dc bc ce 5d 90 3d
       -0.02624931 0.08816968 -0.026867198 0.07049142
0000b0 81 aa ba 3b 53 18 09 be a4 d5 20 bc cb 48 ba bd
       0.005696595 -0.13388185 -0.009816561 -0.090959154
0000c0 3c 9e 91 bc 43 59 97 bd b0 3a 34 bd 21 a5 02 be
       -0.017775647 -0.07390072 -0.04400128 -0.12758304
0000d0 ec a7 35 bd 79 95 c5 bd 49 02 a1 3d 90 40 27 bc
       -0.044349596 -0.0964765 0.07861764 -0.010208264
0000e0 15 10 97 3d 92 19 cd 3c e0 8b 3b 3b b8 b0 3a 3d
       0.07376114 0.025036607 0.0028617308 0.04557869
0000f0 7c c9 b8 bd 2e 64 d7 3d 87 69 31 bd a0 65 b4 3d
       -0.09022805 0.10517155 -0.04331353 0.08808446
000100 f9 9a 65 3d 33 50 0f bd 29 76 b0 3c df 4c 58 bc
       0.056055997 -0.034988593 0.021540718 -0.013201921
000110 2c e6 16 be eb fa 60 bd 01 df 07 be bd e2 91 3d
       -0.14736241 -0.054926794 -0.13268663 0.07123325
000120 fa 5a 8a 3d cf f4 9a bd 0f 80 9a 3d ea d2 2b 3d
       0.06755634 -0.07566225 0.075439565 0.04194919
000130 16 f2 84 3d 87 17 27 3d 12 1b 90 3d 73 b9 64 3e
       0.06491487 0.04079392 0.07036413 0.22336368
000140 f1 6d ec bd 9b 18 65 3b 85 3f 08 bd 97 39 91 3d
       -0.11544407 0.0034957293 -0.033263702 0.070910625
000150 ae 45 d5 3d 1d c7 95 3d 52 cb ba bc bc 2c 45 3d
       0.10413681 0.073133685 -0.022802029 0.048138365
000160 9c eb 64 3c ea ed 93 3d 91 90 6b 3d d4 b0 02 bd
       0.013972189 0.07223113 0.057510916 -0.031906918
000170 a9 60 de 3d 34 0b 98 bc 8f db 3a bd c4 61 27 bd
       0.1085828 -0.01856003 -0.045619544 -0.04086472
000180 35 ab 12 3e ce 02 2e 3e 0a f3 a0 3d 2b 7a 03 be
       0.14323123 0.16993257 0.07858856 -0.12839572
000190 89 4b c2 bc 40 b6 0d 3c 8b a5 08 3e 7e 9f 74 3d
       -0.023717659 0.008649409 0.133444 0.059722416
0001a0 a6 1e b2 3c c8 d9 b1 3d 4a a4 9c bd 86 e7 e8 3c
       0.02174313 0.086841166 -0.07648523 0.028430711
0001b0 9f fa 46 3d f0 c0 0b 3d 8c 49 b4 bd e1 46 62 3d
       0.048578855 0.034119546 -0.088030905 0.055243377
0001c0 e9 7a 7d bd 4a 80 16 3e 88 57 a6 bc f5 72 ea 3d
       -0.061884794 0.14697376 -0.02030541 0.114477076
0001d0 61 87 6f 3c 5c 31 9a 3d 52 96 7d bd da 41 56 bd
       0.014619679 0.07528946 -0.061910935 -0.052308895
0001e0 0f f9 1f bd 40 bb 1b bd 97 13 ed bd 70 22 a7 3d
       -0.03905588 -0.038020372 -0.11576002 0.08160865
0001f0 67 77 4c 3d 02 c9 9e 3b 01 88 da 3d 4f 40 31 3d
       0.04991856 0.0048457393 0.10670472 0.04327422
000200 f1 a2 2b 3e 5b 76 98 3c 28 2e c3 bc a0 55 a2 3d
       0.16761376 0.018611124 -0.02382572 0.07926488
000210 8f 2c 88 bd 1d 05 26 bd 8a a7 6d bd 1a 1c 59 3d
       -0.06649124 -0.04053222 -0.058021106 0.053005315
000220 0d 81 9e 3c 28 8e d5 3c 3f 72 00 be 9e af a3 bc
       0.019348646 0.026068762 -0.12543581 -0.019981202
000230 47 56 f0 3b 8a f4 50 bd d2 27 d7 3d ca dc 87 3d
       0.007334504 -0.05101446 0.10505642 0.06633909
000240 b6 2f 18 bd d0 e1 3c bd 51 46 b9 bd c6 09 09 3e
       -0.037154876 -0.04611379 -0.09046615 0.13382635
000250 55 cd 7e 3d de 89 ea 3d 2f 84 b9 3d 31 97 2c 3e
       0.06220754 0.11452077 0.09058415 0.1685455
000260 d9 be 83 3d 69 b7 95 bc d2 7f db bc 49 b1 ba 3d
       0.06432886 -0.018275933 -0.026794348 0.09115846
000270 4e 4a 91 3d 43 15 10 3d 1a a2 b2 3c bc 93 3b 3e
       0.070942506 0.035176527 0.021805812 0.18318075
000280 f0 a5 11 3e e7 58 26 3e 83 90 b9 bd 94 51 14 3e
       0.14223456 0.16244851 -0.090607665 0.14484245
000290 fe 69 32 3d c4 1a bc bd 5e f6 d5 3c c5 9a bb 3d
       0.043558113 -0.09184793 0.026118454 0.09160379
0002a0 d7 3a 46 3e a0 60 99 3d 6a f2 65 3d cb 59 2b 3d
       0.19358383 0.07489133 0.056139387 0.04183368
0002b0 77 42 07 3d 74 ea 24 3e f0 d8 a1 bd 31 50 63 bd
       0.03302237 0.16105062 -0.07902706 -0.0554964
0002c0 89 33 33 3d 4e b0 77 3c cf 91 7d 3d 65 1c 7f 3d
       0.04375032 0.015117718 0.061906632 0.06228294
0002d0 32 7f cd bc d9 81 02 be 09 18 19 bd e4 e2 13 3e
       -0.025085066 -0.12744845 -0.037376437 0.1444202
0002e0 07 f0 1b 3e 8b 68 01 3d 45 dd 8a 3d 29 eb 02 bd
       0.15228282 0.03159384 0.06780485 -0.031962547
0002f0 00 75 e3 bc 1b 99 88 3d cf 2d df 3c df 50 f1 bd
       -0.02776575 0.066698276 0.027243523 -0.11783003
000300 24 af 10 bd 84 10 db 3d f0 43 9a 3d c1 1b 62 3e
       -0.035323277 0.106965095 0.07532489 0.220809
000310 ad f7 c7 3d 7e 2d 73 bd cf 93 a3 3e f5 96 9d bd
       0.09764037 -0.059369557 0.31948707 -0.076948084
000320 b3 18 fa bd 9a 2d ce 3d 71 2a d1 bc 07 de 99 3d
       -0.12211742 0.100672916 -0.025532933 0.075130515
000330 2e 6e 0d bc 51 c7 03 bd 44 ac 10 3e 9c 47 c8 bd
       -0.008632226 -0.032172505 0.14128214 -0.097792834
000340 39 aa 4a 3d 1d b2 91 bd 22 fe a9 3e 2a 59 d4 bd
       0.049478743 -0.071140505 0.332017 -0.10368569
000350 c9 e1 c9 3c 92 62 4a 3d aa 45 97 3d 27 ea ab 3d
       0.024643796 0.04941041 0.07386334 0.083942704
000360 12 e2 e1 bd ac d8 de bd ba 02 2e 3c 99 bb 2a bd
       -0.110294476 -0.10881171 0.010620767 -0.041682813
000370 90 52 1f 3e 94 21 c6 3d ee 2b 1a bd 51 56 f8 bc
       0.15558839 0.09674373 -0.03763955 -0.030314596
000380 8a 92 ba 3d 00 e7 f3 3d 91 bf 68 bd e6 72 76 3e
       0.09109981 0.11909294 -0.056823317 0.24067268
000390 df 13 3f 3e 0e ae 1e 3e ed 66 06 3e 92 63 22 bd
       0.18659924 0.15496084 0.131252 -0.03964574
0003a0 3f 9e 7a bd 36 63 04 3d 5a b2 5d bd 98 33 b9 3d
       -0.06118607 0.032321177 -0.054125167 0.09043044
0003b0 aa 81 4d bd 15 75 03 3e c2 d8 6c 3e 70 bf bf bd
       -0.050172485 0.12837632 0.23129562 -0.09362686
0003c0 dc 5b 57 3d 8b b3 0c 3e 71 bb 9e 3d 16 0d 04 3e
       0.05257784 0.13740365 0.07750595 0.12895617
0003d0 7f 5c 99 3d b1 28 08 3e 80 c2 75 3d 4f c8 08 3d
       0.07488345 0.13296773 0.059999943 0.033394154
0003e0 70 5a 4e 3d 93 cb c6 bd af e9 ce 3d d9 94 69 bd
       0.050379217 -0.097067975 0.10103165 -0.057026718
0003f0 ed 27 00 3e 90 85 b5 3d f0 3e 25 3e 6f af 31 3e
       0.1251523 0.08863366 0.1613729 0.17352079

bias f4 [256]
000000 34 2b 1c be 7c 72 4f 3d 99 f1 cc 3d f0 9c 31 3e
       -0.15250856 0.05064629 0.100070186 0.17345023
000010 e2 f7 1f 3d c8 73 83 3d fc e7 52 3d d8 73 9d 3b
       0.03905476 0.06418568 0.05149077 0.0048050694
000020 49 15 e4 3d 69 e0 54 3d 42 a7 ba 3d 37 fb 85 bd
       0.11136872 0.051971827 0.09113933 -0.06542056
000030 a4 c8 1d 3d d0 ca 68 bd 03 95 c8 bb 6f f7 c7 3c
       0.038521424 -0.056834042 -0.006121279 0.024409978
000040 32 f4 f5 bd e2 fe 39 bd 78 01 10 3d c6 ff 2d 3e
       -0.12009467 -0.04540909 0.03515765 0.16992101
000050 09 05 8b bd 3a 4b a7 3d 7f 08 0e be 68 66 4e 3d
       -0.0678807 0.08168645 -0.13870429 0.05039063
000060 4d c0 ae 3c e7 6e 0e bc 61 39 14 3d 81 fd 6c 3d
       0.02133193 -0.008693433 0.036187533 0.057858948
000070 59 2a 68 3c 5d 5f 02 3c f0 08 a0 3d c3 e4 c2 3d
       0.014170253 0.007957307 0.07814205 0.09516289
000080 91 d2 77 bc 33 1b 0e 3e 72 56 bb bd c5 43 d2 bc
       -0.015125887 0.13877563 -0.091473475 -0.02566708
000090 40 07 21 bd fc 0c f5 3c a5 61 68 3c 28 64 ab 3d
       -0.039313555 0.029913418 0.0141834365 0.08368713
0000a0 78 6e 14 3e 76 2b d4 bb 38 b5 c4 bd b7 25 4e 3d
       0.14495265 -0.0064749075 -0.09604877 0.050328936
0000b0 13 49 90 3c 02 ac 96 bc 1a f7 df 3d aa 44 5c 3d
       0.01761297 -0.018392567 0.10935803 0.05377642
0000c0 86 d1 c2 3d c0 c2 60 bc 31 f4 b6 3d dc 2c e5 3c
       0.0951262 -0.013718307 0.089332946 0.027975492
0000d0 4b a6 47 3d 22 68 ec 3c 97 f7 d1 3d 96 d1 17 3e
       0.048742574 0.028858248 0.10252302 0.14826044
0000e0 9f 0c 16 3b a5 ec 65 3c 97 a5 6f bd be b1 15 bc
       0.0022895706 0.014033471 -0.05850753 -0.009136615
0000f0 52 c2 a5 bd b9 e2 9a 3b b0 51 f7 bb 05 14 8e bd
       -0.08093704 0.0047267345 -0.0075475797 -0.06937412
000100 60 dd 02 3e 52 a2 8f bd a7 43 c0 3d cd b2 b4 3c
       0.1277976 -0.07013382 0.09387904 0.022057915
000110 c7 60 30 3c c6 9d 95 bc 7b 29 df bb 99 01 2c 3d
       0.010765261 -0.018263709 -0.006810365 0.04199371
000120 55 c4 6b 3d df 7a e4 3d 7d ca 17 be 67 88 98 bd
       0.057560284 0.11156248 -0.14823337 -0.07447892
000130 fc fd a9 3c ba 2b 25 3d 60 95 e3 3b 25 3a 59 3d
       0.020750992 0.040324904 0.006945297 0.053033967
000140 17 ee c9 bd 35 34 88 bc c3 e1 a7 3c 17 9d 2d bd
       -0.09859865 -0.016626457 0.020493394 -0.04238614
000150 65 e8 e0 3d e0 f6 1e 3e 94 c4 da 3d 78 18 58 3d
       0.10981826 0.15523863 0.106820256 0.05275771
000160 50 e5 47 3d 07 d4 e3 3d 9c 33 10 bd b7 e1 71 3d
       0.048802674 0.111244254 -0.03520547 0.05905315
000170 d4 b3 ce bc 5f 64 4a bb 66 f8 7d 39 f6 1c 06 3d
       -0.025232233 -0.003088258 0.00024220496 0.032742463
000180 9a 1c fc bd 84 e4 ef bd 42 30 df 3d 9b 4f b2 bd
       -0.12310143 -0.11713508 0.10897876 -0.0870659
000190 2a b4 1c 3e 36 89 8a bc 4f c0 89 3c ac 5f 92 bc
       0.15303102 -0.01691113 0.016815333 -0.017867886
0001a0 5e 96 b6 3d 18 3b 36 3d 87 76 5d 3d 1f 81 90 bd
       0.08915399 0.04448995 0.054068115 -0.07055878
0001b0 31 7c 59 bd a2 b1 42 3d bd 3f 3a 3c 9d 6b 0f bd
       -0.053096954 0.047532685 0.011367735 -0.035014737
0001c0 2c 98 25 bc 59 6d a3 3d 3d 78 8c bd 14 8f 32 3d
       -0.010107081 0.07979841 -0.06858871 0.04359348
0001d0 ee 33 a1 3d c4 51 92 bc 74 36 b6 bc ca b4 06 bd
       0.07871233 -0.017861255 -0.022242762 -0.032887258
0001e0 23 72 2c bd 37 a7 15 3d 2c 82 b6 3b 5c 05 f2 bb
       -0.042101037 0.03653642 0.005569717 -0.007385893
0001f0 95 c3 e3 3d 44 2a 86 bd bc de b8 3d 67 0a 27 bd
       0.11121289 -0.0655103 0.09026858 -0.040781405
000200 1d ed 6d bd 52 cf 4e bd 11 af db bd 73 c2 be bc
       -0.058087457 -0.050490685 -0.10726751 -0.02328608
000210 cf 68 42 3d 1c c5 0a 3e 8a 15 8c 3d 6d 57 94 3d
       0.047463235 0.13551754 0.06840046 0.07243238
000220 03 7d 94 3b ce 5c 23 3d bc 84 d4 3c 2e 75 04 3d
       0.004531504 0.039883427 0.025942199 0.032338314
000230 8f 8b 7f bc 05 d0 37 3e 81 e5 cd 3c 74 8a d8 3d
       -0.015597238 0.17950447 0.02513385 0.10573283
000240 83 79 ce 3d e2 be a5 3d aa c1 4b 3d fa 47 43 bc
       0.1008177 0.08093049 0.04974524 -0.011919016
000250 d8 5f 97 bd 78 0b 34 3b 0c 8f 49 3d a0 81 ca 3d
       -0.073913276 0.0027472656 0.049208686 0.09888005
000260 f0 17 8a 3d d2 62 72 bd ac c5 8d 3d 0b de 52 bd
       0.06742847 -0.059176274 0.069224685 -0.051481288
000270 f4 db 3b bc 46 a2 9a bd 0b 04 0f 3b a0 71 04 bb
       -0.011466015 -0.075504825 0.0021822478 -0.0020209327
000280 b7 3b a2 bd f2 0b 79 3d 9d 28 d2 bc 29 23 1e 3e
       -0.07921546 0.060802408 -0.025654132 0.154431
000290 70 d8 9e bb a0 12 ea bd 16 18 46 3d 86 3a 2a 3e
       -0.0048475787 -0.11429334 0.048362814 0.16623887
0002a0 97 8f 87 bd 06 cc 8a ba bb ee b9 bc 62 45 e0 3d
       -0.066191845 -0.0010589368 -0.022696843 0.10950734
0002b0 cb 54 02 3d 4f 75 8a bd e1 61 8b bd d8 00 cf 3c
       0.031819146 -0.06760656 -0.06805778 0.025268957
0002c0 3a 90 a9 3d 8e 3f 7e bc fc 78 79 3d 38 22 23 3d
       0.08279462 -0.015518082 0.060906395 0.039827555
0002d0 dd 85 91 bc d3 78 0f bc 60 0d d3 3d 56 d0 c4 3d
       -0.017764026 -0.008756834 0.103052855 0.096100494
0002e0 99 19 32 3e 64 c4 37 3c ed a6 f1 3c 84 9d 6a 3d
       0.17392577 0.011216257 0.029498542 0.057279125
0002f0 a7 bf b6 bd 48 7a 1a bc 24 c2 eb 3d e1 f0 8c 3d
       -0.089232735 -0.009428568 0.11511639 0.068818815
000300 1c ac 87 bd 73 ba 21 be 0f b9 f6 bc 80 1c 16 3c
       -0.06624624 -0.15793781 -0.03011754 0.009162068
000310 9e 18 a0 3d d6 ec 0a bd 71 e0 a4 3c 01 4d c6 bb
       0.07817195 -0.03391727 0.020126553 -0.00605166
000320 c3 58 29 3c 3d 3e fc bc 30 17 8f 3d f9 0a aa 3c
       0.010336104 -0.030791396 0.069868445 0.020757185
000330 ef 65 fc 3c 85 7f dc b9 23 ac 35 3e 33 d3 4c 3d
       0.030810324 -0.0004205668 0.17741446 0.050006103
000340 65 9c 16 3d 90 61 12 3c 19 94 7a 3d 4d 83 f0 bd
       0.036770243 0.0089343935 0.061176393 -0.11743794
000350 3a 2e 8b 3d 71 89 17 3e 17 a6 cc 3d eb 73 89 bc
       0.067959264 0.14798523 0.099926166 -0.016778907
000360 a7 63 65 bd 4a cf c9 3c c8 5c 82 3d 3d 68 bc 3d
       -0.05600324 0.024634976 0.06365353 0.091995694
000370 99 6e a2 3c 79 4f 0f 3d 69 73 b4 3c 27 15 8c bd
       0.019828128 0.0349879 0.022027688 -0.06839972
000380 fa e4 e6 3d a9 de ea 3d e3 ad 93 3d cd d7 dc bb
       0.112741426 0.1146825 0.07210901 -0.0067395926
000390 4b 94 4b bd b7 65 fd bd e5 19 3f 3d 89 7a c0 3c
       -0.04970197 -0.12372916 0.046655554 0.02349593
0003a0 84 7a 95 3d d7 a8 53 bd 99 c7 be 3c 56 89 88 bd
       0.072987586 -0.05167469 0.023288535 -0.0666682
0003b0 ea f5 ef 3b c2 5d a1 bd 2f cc 6f 3d 0d 95 30 bd
       0.0073230164 -0.07879211 0.058544334 -0.043110896
0003c0 d5 5b de 3d 79 01 fd bd 7f 11 38 bd 46 de 13 bd
       0.10857359 -0.123537965 -0.04493856 -0.03610065
0003d0 d3 bc e2 3c bf 12 6b bd 07 a6 c8 3d a8 6c a4 bc
       0.027677929 -0.057390925 0.09797292 -0.020071343
0003e0 fc e8 aa bd 95 83 b0 3d 37 2c 4e bc 1e 79 1f 3d
       -0.083452195 0.08618847 -0.012583784 0.038933866
0003f0 08 8f 9a 3b 78 d8 f5 3c b2 79 bc 3c 2b 2e 6e 3d
       0.0047167577 0.030010447 0.023007248 0.058149498

weight f4 [10, 256]
000000 c6 6c 83 3c 06 b2 bd 3d be e8 7f bb 29 38 74 be
       0.016043078 0.09262471 -0.0039048637 -0.23849548
000010 f2 af be 3c 8e f7 9c bc f5 1f 20 be 0a 97 93 be
       0.023277257 -0.019161012 -0.1563719 -0.2882617
000020 58 37 c5 3d e5 fe be bd eb 96 21 be b9 61 ec 3c
       0.096296966 -0.09325961 -0.15780227 0.028855192
000030 88 64 8c bd 3e c6 42 3d 10 88 a3 bd 33 26 22 3d
       -0.06855112 0.04755234 -0.07984936 0.03958721
000040 a7 87 16 3e ac 0d 1e be 35 bb 6f bd 83 5f 1c 3b
       0.14700185 -0.15434903 -0.058528144 0.002386064
000050 5d 34 11 bc b6 c9 a5 bd c3 56 0f bd dd 71 e6 3d
       -0.008862582 -0.08095114 -0.03499485 0.112521864
000060 60 b9 bf 3d 6b 3e 06 be 10 2d c7 3d 0b ae db 3d
       0.09361529 -0.13109748 0.09725392 0.107265554
000070 27 5f e8 bd 63 d1 04 be e9 3f f4 bc 1c f5 0c be
       -0.11346274 -0.129705 -0.029815631 -0.13765377
000080 bf 57 87 3d 17 b8 1e be c6 c6 2f be 03 8e b0 bd
       0.06608533 -0.15499912 -0.1716567 -0.086208366
000090 4b fb f7 3d 3a 01 63 3d 07 53 3c be 9f 28 0e bd
       0.12108477 0.05542109 -0.18391047 -0.034706708
0000a0 bf 7e 08 bd 0b fa a4 3d 23 80 a0 bd 0f 59 68 be
       -0.033324 0.080555044 -0.0783694 -0.22690223
0000b0 73 72 91 3d 0c 59 95 bc c9 0d 08 3e 5b 2e cc 3d
       0.071019076 -0.018230937 0.13286509 0.09969779
0000c0 b9 18 13 3d 52 8a d8 bc 13 80 fe bd f8 c2 1e 3d
       0.03591225 -0.026433144 -0.12426772 0.038760155
0000d0 78 8a 47 be 2f 54 dd 3d da 4b 59 bd 59 36 a8 bd
       -0.19486415 0.10807072 -0.053050853 -0.08213491
0000e0 de d4 04 3e 11 f0 4c be 4c d6 64 3b 6f d4 08 bc
       0.12971827 -0.20013453 0.003491777 -0.008351429
0000f0 b4 4c 61 be 98 b6 dc bd 56 ff 98 bd 47 ae a1 bd
       -0.22001916 -0.107770145 -0.074705765 -0.07894569
000100 3b 7c 01 3e 42 19 dd bc 99 7e 08 3d a2 3a a7 bd
       0.12645046 -0.026989583 0.033323858 -0.0816548
000110 3e 9c 1f be b4 de 39 be 4a 4d d3 3c 63 41 03 3d
       -0.15586945 -0.18151361 0.02579369 0.03204478
000120 36 24 91 3d b5 4d 36 be 86 fb 13 be b2 4b 98 3c
       0.07086985 -0.1780308 -0.14451417 0.018590782
000130 e9 55 59 bd 2c 34 b7 3d 1b 6f b8 ba 3b 31 0b 3e
       -0.053060446 0.08945498 -0.0014071198 0.13592999
000140 59 6a f5 3d 54 7a 71 bd 56 43 da bd 83 3b b2 3c
       0.11983175 -0.05895455 -0.106573746 0.021756893
000150 40 24 a8 bd 61 df f0 3d 82 72 b7 bd 56 60 a5 3d
       -0.08210039 0.11761356 -0.089573875 0.08075015
000160 e8 8b 13 3e 73 20 14 be d7 7a 66 3c c8 c6 9b bd
       0.14408839 -0.14465503 0.014067373 -0.07606274
000170 4f 38 b7 3d 4c 40 8b 3d ed b9 0f 3d 62 68 27 3d
       0.08946287 0.06799373 0.035089422 0.04087103
000180 10 e2 27 3d 33 18 40 bd 6b 4e ad 3d 35 bb e6 bc
       0.040987074 -0.04689808 0.08462223 -0.02816544
000190 b3 f3 cd bd 91 67 1b 3d 65 fd 2e be 3e bc c1 3d
       -0.100562476 0.037940565 -0.1708885 0.094597325
0001a0 6c 3b ab 3c b3 57 56 bd 20 4b ed 3d 76 80 99 bd
       0.020902358 -0.05232973 0.115865946 -0.07495205
0001b0 b8 a2 9f 3d 73 5c b2 3d 85 9f 72 be 8e 19 08 bc
       0.07794708 0.087090395 -0.23693664 -0.008306874
0001c0 d5 d5 cd 3d 6a f9 dd bd d7 d2 ee bd 49 8c 06 3e
       0.10050551 -0.108385876 -0.11661308 0.13139452
0001d0 71 2f b7 bd 77 23 10 3d 19 21 0d bd f6 59 9c 3b
       -0.089445956 0.035190072 -0.034455393 0.0047714664
0001e0 d6 a8 ae 3d d0 eb bb bd be dd f2 bd 45 5e 22 be
       0.08528297 -0.09175837 -0.118587 -0.15856273
0001f0 8e 6a cc 3c e5 6a 27 be d2 1d 85 ba 01 0d 00 3d
       0.024953153 -0.16349371 -0.0010155982 0.0312624
000200 cb 55 bf 3d 59 4f c1 bd c9 a0 a9 3b 0c 06 a2 3d
       0.093425356 -0.094389625 0.005176638 0.079113096
000210 40 d3 44 be 88 59 11 be 2b 12 dd 3d 80 ca bd bd
       -0.1922121 -0.1419431 0.10794481 -0.092671394
000220 70 ec 67 3d fd 9a 29 3d 94 89 d9 3c 1b ba 70 bd
       0.05662197 0.041407574 0.02655486 -0.058771234
000230 f7 b2 6f 3d 95 ed 9e 3c 6d 31 8b bc c5 6d 93 bd
       0.058520284 0.019400397 -0.016991341 -0.07198671
000240 cf 56 d6 bd 48 1f 4e be 5a 8b f8 3d 8f 9c 33 bc
       -0.10465776 -0.2012912 0.12135954 -0.010962619
000250 b0 32 61 bd fb 63 56 bd 06 c4 7c bd 6b 8c 41 3d
       -0.05497998 -0.052341443 -0.06171038 0.047253054
000260 38 8d 6f be 13 b8 8d 3d 70 09 61 be 58 d5 33 3c
       -0.23393714 0.06919875 -0.21976256 0.010976158
000270 3b 6e 06 3e ca e8 65 bd c8 94 86 3d 3a e5 54 be
       0.13127987 -0.056130208 0.065713465 -0.20790568
000280 23 98 62 be e0 ab bf 3d f6 de c5 bc 4c c9 47 be
       -0.22128348 0.093589544 -0.024154168 -0.19510382
000290 84 a8 e9 3d 04 6f 18 3c c4 f7 f1 bd 59 3c 77 be
       0.11409095 0.009303812 -0.11814836 -0.24144115
0002a0 67 f2 59 3e 27 87 b9 3d bc d5 87 bd f9 58 c9 3c
       0.21283875 0.090589814 -0.066325635 0.024578558
0002b0 cc a5 62 bd 40 fa 75 3d ed dd 00 3e fd 35 7f 3d
       -0.055333897 0.06005311 0.12584658 0.062307347
0002c0 55 0b 5d bd 73 fb 68 bd d2 9e eb bd f5 41 d1 bd
       -0.053965885 -0.056880426 -0.11504902 -0.102176584
0002d0 f9 b6 29 bd df ab 51 3d 71 fe 0d 3e da dd 2b be
       -0.041434262 0.0511893 0.13866593 -0.16783848
0002e0 eb 7a db 3d 6f a1 6e 3d 0f 67 4e 3d 50 d7 29 be
       0.10716804 0.058259424 0.050391253 -0.16586041
0002f0 77 fa 0c 3e 60 fc e3 bd 5a f5 3b bd c8 f0 25 be
       0.1376742 -0.11132121 -0.045888282 -0.16205132
000300 d1 a5 d0 3c 98 aa 37 3d 08 76 d1 bd c0 1d 00 be
       0.025469692 0.044840425 -0.10227591 -0.12511349
000310 ca 68 80 bd e1 22 bc 3d f7 0c cd 3a 20 64 87 3b
       -0.06269987 0.0918634 0.0015644123 0.004131809
000320 2f 91 4a bd 85 a8 af bd e9 c8 82 3d 41 c8 9a bd
       -0.049454864 -0.085770644 0.06385977 -0.07557727
000330 0b 2d ff bd a0 94 0e 3e 12 1f 04 be 7f 5a 05 be
       -0.12459763 0.13923883 -0.12902477 -0.13022803
000340 d4 79 16 be b6 3b 7c 3d 1a e2 c5 3d e5 d9 ca 3d
       -0.14694911 0.061580382 0.09662266 0.09904841
000350 44 18 01 be 0e 39 c9 3d a9 a4 a5 3d 9b 01 93 3d
       -0.12606913 0.098253354 0.08088047 0.071780406
000360 47 42 2e bc 91 2e 95 bd c0 bf ed bd ba 99 4e bd
       -0.010635919 -0.072842725 -0.11608839 -0.050439574
000370 32 d2 1a be 50 97 c1 3d 4a 28 b6 3c c9 51 23 be
       -0.15119246 0.09452689 0.022236008 -0.15949167
000380 36 a8 a2 3d b9 e6 e0 bd fd d4 e9 3d 75 4c 71 3a
       0.0794224 -0.10981507 0.114175774 0.00092048134
000390 9a 59 c4 bd c1 a1 84 bd 3b 85 19 be 64 89 d7 bd
       -0.09587403 -0.064761646 -0.1499223 -0.10524252
0003a0 62 b2 d8 3d 96 b9 b8 bd 06 4a 18 bd d5 9a 94 be
       0.10580899 -0.09019773 -0.03717997 -0.29024377
0003b0 63 ee ac 3d 40 e2 8f 3d d0 f0 1b be 17 58 ae bd
       0.08443906 0.07025576 -0.15228581 -0.085128956
0003c0 7b 37 ce bd 84 df fb bd 2d e2 73 be 43 7e 73 3d
       -0.10069176 -0.122984916 -0.23816748 0.059446584
0003d0 4b e4 20 bd 2f dc 9a 3d 92 8d a5 bd 90 b3 25 3d
       -0.039280217 0.07561528 -0.08083643 0.040454447
0003e0 a5 a1 f4 3c 6a 8d 1f 3d d7 f9 04 3d 5b ab 13 be
       0.029862234 0.038953222 0.03246483 -0.14420836
0003f0 d0 c1 60 bd 85 16 0b be 07 b4 23 be 26 0e 45 be
       -0.054872334 -0.1358281 -0.15986644 -0.19243678

bias f4 [10]
000000 85 fa 91 3d ed c2 c9 3d f2 6d 73 bc 25 d5 86 bd
       0.07127861 0.09851632 -0.014857756 -0.06583623
000010 b5 87 8d 3d 36 b5 aa 3d 2f 86 32 3d d3 dc 14 3b
       0.0691065 0.083353445 0.043585 0.002271463
000020 8b f8 0a be 3f 2b 27 bd
       -0.13571374 -0.040812727
